{
  "nodes": [
    {
      "op": "null", 
      "name": "data", 
      "inputs": []
    }, 
    {
      "op": "Cast", 
      "name": "cast4", 
      "attr": {"dtype": "float16"}, 
      "inputs": [[0, 0, 0]]
    }, 
    {
      "op": "null", 
      "name": "conv_conv2d_weight", 
      "attr": {
        "kernel": "(3, 3)", 
        "no_bias": "True", 
        "num_filter": "32", 
        "pad": "(0, 0)", 
        "stride": "(2, 2)"
      }, 
      "inputs": []
    }, 
    {
      "op": "Convolution", 
      "name": "conv_conv2d", 
      "attr": {
        "kernel": "(3, 3)", 
        "no_bias": "True", 
        "num_filter": "32", 
        "pad": "(0, 0)", 
        "stride": "(2, 2)"
      }, 
      "inputs": [[1, 0, 0], [2, 0, 0]]
    }, 
    {
      "op": "null", 
      "name": "conv_batchnorm_gamma", 
      "attr": {"fix_gamma": "True"}, 
      "inputs": []
    }, 
    {
      "op": "null", 
      "name": "conv_batchnorm_beta", 
      "attr": {"fix_gamma": "True"}, 
      "inputs": []
    }, 
    {
      "op": "null", 
      "name": "conv_batchnorm_moving_mean", 
      "attr": {
        "__init__": "[\"zero\", {}]", 
        "fix_gamma": "True"
      }, 
      "inputs": []
    }, 
    {
      "op": "null", 
      "name": "conv_batchnorm_moving_var", 
      "attr": {
        "__init__": "[\"one\", {}]", 
        "fix_gamma": "True"
      }, 
      "inputs": []
    }, 
    {
      "op": "BatchNorm", 
      "name": "conv_batchnorm", 
      "attr": {"fix_gamma": "True"}, 
      "inputs": [[3, 0, 0], [4, 0, 0], [5, 0, 0], [6, 0, 1], [7, 0, 1]]
    }, 
    {
      "op": "Activation", 
      "name": "conv_relu", 
      "attr": {"act_type": "relu"}, 
      "inputs": [[8, 0, 0]]
    }, 
    {
      "op": "null", 
      "name": "conv_1_conv2d_weight", 
      "attr": {
        "kernel": "(3, 3)", 
        "no_bias": "True", 
        "num_filter": "32", 
        "pad": "(0, 0)", 
        "stride": "(1, 1)"
      }, 
      "inputs": []
    }, 
    {
      "op": "Convolution", 
      "name": "conv_1_conv2d", 
      "attr": {
        "kernel": "(3, 3)", 
        "no_bias": "True", 
        "num_filter": "32", 
        "pad": "(0, 0)", 
        "stride": "(1, 1)"
      }, 
      "inputs": [[9, 0, 0], [10, 0, 0]]
    }, 
    {
      "op": "null", 
      "name": "conv_1_batchnorm_gamma", 
      "attr": {"fix_gamma": "True"}, 
      "inputs": []
    }, 
    {
      "op": "null", 
      "name": "conv_1_batchnorm_beta", 
      "attr": {"fix_gamma": "True"}, 
      "inputs": []
    }, 
    {
      "op": "null", 
      "name": "conv_1_batchnorm_moving_mean", 
      "attr": {
        "__init__": "[\"zero\", {}]", 
        "fix_gamma": "True"
      }, 
      "inputs": []
    }, 
    {
      "op": "null", 
      "name": "conv_1_batchnorm_moving_var", 
      "attr": {
        "__init__": "[\"one\", {}]", 
        "fix_gamma": "True"
      }, 
      "inputs": []
    }, 
    {
      "op": "BatchNorm", 
      "name": "conv_1_batchnorm", 
      "attr": {"fix_gamma": "True"}, 
      "inputs": [[11, 0, 0], [12, 0, 0], [13, 0, 0], [14, 0, 1], [15, 0, 1]]
    }, 
    {
      "op": "Activation", 
      "name": "conv_1_relu", 
      "attr": {"act_type": "relu"}, 
      "inputs": [[16, 0, 0]]
    }, 
    {
      "op": "null", 
      "name": "conv_2_conv2d_weight", 
      "attr": {
        "kernel": "(3, 3)", 
        "no_bias": "True", 
        "num_filter": "64", 
        "pad": "(1, 1)", 
        "stride": "(1, 1)"
      }, 
      "inputs": []
    }, 
    {
      "op": "Convolution", 
      "name": "conv_2_conv2d", 
      "attr": {
        "kernel": "(3, 3)", 
        "no_bias": "True", 
        "num_filter": "64", 
        "pad": "(1, 1)", 
        "stride": "(1, 1)"
      }, 
      "inputs": [[17, 0, 0], [18, 0, 0]]
    }, 
    {
      "op": "null", 
      "name": "conv_2_batchnorm_gamma", 
      "attr": {"fix_gamma": "True"}, 
      "inputs": []
    }, 
    {
      "op": "null", 
      "name": "conv_2_batchnorm_beta", 
      "attr": {"fix_gamma": "True"}, 
      "inputs": []
    }, 
    {
      "op": "null", 
      "name": "conv_2_batchnorm_moving_mean", 
      "attr": {
        "__init__": "[\"zero\", {}]", 
        "fix_gamma": "True"
      }, 
      "inputs": []
    }, 
    {
      "op": "null", 
      "name": "conv_2_batchnorm_moving_var", 
      "attr": {
        "__init__": "[\"one\", {}]", 
        "fix_gamma": "True"
      }, 
      "inputs": []
    }, 
    {
      "op": "BatchNorm", 
      "name": "conv_2_batchnorm", 
      "attr": {"fix_gamma": "True"}, 
      "inputs": [[19, 0, 0], [20, 0, 0], [21, 0, 0], [22, 0, 1], [23, 0, 1]]
    }, 
    {
      "op": "Activation", 
      "name": "conv_2_relu", 
      "attr": {"act_type": "relu"}, 
      "inputs": [[24, 0, 0]]
    }, 
    {
      "op": "Pooling", 
      "name": "pool", 
      "attr": {
        "kernel": "(3, 3)", 
        "pool_type": "max", 
        "stride": "(2, 2)"
      }, 
      "inputs": [[25, 0, 0]]
    }, 
    {
      "op": "null", 
      "name": "conv_3_conv2d_weight", 
      "attr": {
        "kernel": "(1, 1)", 
        "no_bias": "True", 
        "num_filter": "80", 
        "pad": "(0, 0)", 
        "stride": "(1, 1)"
      }, 
      "inputs": []
    }, 
    {
      "op": "Convolution", 
      "name": "conv_3_conv2d", 
      "attr": {
        "kernel": "(1, 1)", 
        "no_bias": "True", 
        "num_filter": "80", 
        "pad": "(0, 0)", 
        "stride": "(1, 1)"
      }, 
      "inputs": [[26, 0, 0], [27, 0, 0]]
    }, 
    {
      "op": "null", 
      "name": "conv_3_batchnorm_gamma", 
      "attr": {"fix_gamma": "True"}, 
      "inputs": []
    }, 
    {
      "op": "null", 
      "name": "conv_3_batchnorm_beta", 
      "attr": {"fix_gamma": "True"}, 
      "inputs": []
    }, 
    {
      "op": "null", 
      "name": "conv_3_batchnorm_moving_mean", 
      "attr": {
        "__init__": "[\"zero\", {}]", 
        "fix_gamma": "True"
      }, 
      "inputs": []
    }, 
    {
      "op": "null", 
      "name": "conv_3_batchnorm_moving_var", 
      "attr": {
        "__init__": "[\"one\", {}]", 
        "fix_gamma": "True"
      }, 
      "inputs": []
    }, 
    {
      "op": "BatchNorm", 
      "name": "conv_3_batchnorm", 
      "attr": {"fix_gamma": "True"}, 
      "inputs": [[28, 0, 0], [29, 0, 0], [30, 0, 0], [31, 0, 1], [32, 0, 1]]
    }, 
    {
      "op": "Activation", 
      "name": "conv_3_relu", 
      "attr": {"act_type": "relu"}, 
      "inputs": [[33, 0, 0]]
    }, 
    {
      "op": "null", 
      "name": "conv_4_conv2d_weight", 
      "attr": {
        "kernel": "(3, 3)", 
        "no_bias": "True", 
        "num_filter": "192", 
        "pad": "(0, 0)", 
        "stride": "(1, 1)"
      }, 
      "inputs": []
    }, 
    {
      "op": "Convolution", 
      "name": "conv_4_conv2d", 
      "attr": {
        "kernel": "(3, 3)", 
        "no_bias": "True", 
        "num_filter": "192", 
        "pad": "(0, 0)", 
        "stride": "(1, 1)"
      }, 
      "inputs": [[34, 0, 0], [35, 0, 0]]
    }, 
    {
      "op": "null", 
      "name": "conv_4_batchnorm_gamma", 
      "attr": {"fix_gamma": "True"}, 
      "inputs": []
    }, 
    {
      "op": "null", 
      "name": "conv_4_batchnorm_beta", 
      "attr": {"fix_gamma": "True"}, 
      "inputs": []
    }, 
    {
      "op": "null", 
      "name": "conv_4_batchnorm_moving_mean", 
      "attr": {
        "__init__": "[\"zero\", {}]", 
        "fix_gamma": "True"
      }, 
      "inputs": []
    }, 
    {
      "op": "null", 
      "name": "conv_4_batchnorm_moving_var", 
      "attr": {
        "__init__": "[\"one\", {}]", 
        "fix_gamma": "True"
      }, 
      "inputs": []
    }, 
    {
      "op": "BatchNorm", 
      "name": "conv_4_batchnorm", 
      "attr": {"fix_gamma": "True"}, 
      "inputs": [[36, 0, 0], [37, 0, 0], [38, 0, 0], [39, 0, 1], [40, 0, 1]]
    }, 
    {
      "op": "Activation", 
      "name": "conv_4_relu", 
      "attr": {"act_type": "relu"}, 
      "inputs": [[41, 0, 0]]
    }, 
    {
      "op": "Pooling", 
      "name": "pool1", 
      "attr": {
        "kernel": "(3, 3)", 
        "pool_type": "max", 
        "stride": "(2, 2)"
      }, 
      "inputs": [[42, 0, 0]]
    }, 
    {
      "op": "null", 
      "name": "mixed_conv_conv2d_weight", 
      "attr": {
        "kernel": "(1, 1)", 
        "no_bias": "True", 
        "num_filter": "64", 
        "pad": "(0, 0)", 
        "stride": "(1, 1)"
      }, 
      "inputs": []
    }, 
    {
      "op": "Convolution", 
      "name": "mixed_conv_conv2d", 
      "attr": {
        "kernel": "(1, 1)", 
        "no_bias": "True", 
        "num_filter": "64", 
        "pad": "(0, 0)", 
        "stride": "(1, 1)"
      }, 
      "inputs": [[43, 0, 0], [44, 0, 0]]
    }, 
    {
      "op": "null", 
      "name": "mixed_conv_batchnorm_gamma", 
      "attr": {"fix_gamma": "True"}, 
      "inputs": []
    }, 
    {
      "op": "null", 
      "name": "mixed_conv_batchnorm_beta", 
      "attr": {"fix_gamma": "True"}, 
      "inputs": []
    }, 
    {
      "op": "null", 
      "name": "mixed_conv_batchnorm_moving_mean", 
      "attr": {
        "__init__": "[\"zero\", {}]", 
        "fix_gamma": "True"
      }, 
      "inputs": []
    }, 
    {
      "op": "null", 
      "name": "mixed_conv_batchnorm_moving_var", 
      "attr": {
        "__init__": "[\"one\", {}]", 
        "fix_gamma": "True"
      }, 
      "inputs": []
    }, 
    {
      "op": "BatchNorm", 
      "name": "mixed_conv_batchnorm", 
      "attr": {"fix_gamma": "True"}, 
      "inputs": [[45, 0, 0], [46, 0, 0], [47, 0, 0], [48, 0, 1], [49, 0, 1]]
    }, 
    {
      "op": "Activation", 
      "name": "mixed_conv_relu", 
      "attr": {"act_type": "relu"}, 
      "inputs": [[50, 0, 0]]
    }, 
    {
      "op": "null", 
      "name": "mixed_tower_conv_conv2d_weight", 
      "attr": {
        "kernel": "(1, 1)", 
        "no_bias": "True", 
        "num_filter": "48", 
        "pad": "(0, 0)", 
        "stride": "(1, 1)"
      }, 
      "inputs": []
    }, 
    {
      "op": "Convolution", 
      "name": "mixed_tower_conv_conv2d", 
      "attr": {
        "kernel": "(1, 1)", 
        "no_bias": "True", 
        "num_filter": "48", 
        "pad": "(0, 0)", 
        "stride": "(1, 1)"
      }, 
      "inputs": [[43, 0, 0], [52, 0, 0]]
    }, 
    {
      "op": "null", 
      "name": "mixed_tower_conv_batchnorm_gamma", 
      "attr": {"fix_gamma": "True"}, 
      "inputs": []
    }, 
    {
      "op": "null", 
      "name": "mixed_tower_conv_batchnorm_beta", 
      "attr": {"fix_gamma": "True"}, 
      "inputs": []
    }, 
    {
      "op": "null", 
      "name": "mixed_tower_conv_batchnorm_moving_mean", 
      "attr": {
        "__init__": "[\"zero\", {}]", 
        "fix_gamma": "True"
      }, 
      "inputs": []
    }, 
    {
      "op": "null", 
      "name": "mixed_tower_conv_batchnorm_moving_var", 
      "attr": {
        "__init__": "[\"one\", {}]", 
        "fix_gamma": "True"
      }, 
      "inputs": []
    }, 
    {
      "op": "BatchNorm", 
      "name": "mixed_tower_conv_batchnorm", 
      "attr": {"fix_gamma": "True"}, 
      "inputs": [[53, 0, 0], [54, 0, 0], [55, 0, 0], [56, 0, 1], [57, 0, 1]]
    }, 
    {
      "op": "Activation", 
      "name": "mixed_tower_conv_relu", 
      "attr": {"act_type": "relu"}, 
      "inputs": [[58, 0, 0]]
    }, 
    {
      "op": "null", 
      "name": "mixed_tower_conv_1_conv2d_weight", 
      "attr": {
        "kernel": "(5, 5)", 
        "no_bias": "True", 
        "num_filter": "64", 
        "pad": "(2, 2)", 
        "stride": "(1, 1)"
      }, 
      "inputs": []
    }, 
    {
      "op": "Convolution", 
      "name": "mixed_tower_conv_1_conv2d", 
      "attr": {
        "kernel": "(5, 5)", 
        "no_bias": "True", 
        "num_filter": "64", 
        "pad": "(2, 2)", 
        "stride": "(1, 1)"
      }, 
      "inputs": [[59, 0, 0], [60, 0, 0]]
    }, 
    {
      "op": "null", 
      "name": "mixed_tower_conv_1_batchnorm_gamma", 
      "attr": {"fix_gamma": "True"}, 
      "inputs": []
    }, 
    {
      "op": "null", 
      "name": "mixed_tower_conv_1_batchnorm_beta", 
      "attr": {"fix_gamma": "True"}, 
      "inputs": []
    }, 
    {
      "op": "null", 
      "name": "mixed_tower_conv_1_batchnorm_moving_mean", 
      "attr": {
        "__init__": "[\"zero\", {}]", 
        "fix_gamma": "True"
      }, 
      "inputs": []
    }, 
    {
      "op": "null", 
      "name": "mixed_tower_conv_1_batchnorm_moving_var", 
      "attr": {
        "__init__": "[\"one\", {}]", 
        "fix_gamma": "True"
      }, 
      "inputs": []
    }, 
    {
      "op": "BatchNorm", 
      "name": "mixed_tower_conv_1_batchnorm", 
      "attr": {"fix_gamma": "True"}, 
      "inputs": [[61, 0, 0], [62, 0, 0], [63, 0, 0], [64, 0, 1], [65, 0, 1]]
    }, 
    {
      "op": "Activation", 
      "name": "mixed_tower_conv_1_relu", 
      "attr": {"act_type": "relu"}, 
      "inputs": [[66, 0, 0]]
    }, 
    {
      "op": "null", 
      "name": "mixed_tower_1_conv_conv2d_weight", 
      "attr": {
        "kernel": "(1, 1)", 
        "no_bias": "True", 
        "num_filter": "64", 
        "pad": "(0, 0)", 
        "stride": "(1, 1)"
      }, 
      "inputs": []
    }, 
    {
      "op": "Convolution", 
      "name": "mixed_tower_1_conv_conv2d", 
      "attr": {
        "kernel": "(1, 1)", 
        "no_bias": "True", 
        "num_filter": "64", 
        "pad": "(0, 0)", 
        "stride": "(1, 1)"
      }, 
      "inputs": [[43, 0, 0], [68, 0, 0]]
    }, 
    {
      "op": "null", 
      "name": "mixed_tower_1_conv_batchnorm_gamma", 
      "attr": {"fix_gamma": "True"}, 
      "inputs": []
    }, 
    {
      "op": "null", 
      "name": "mixed_tower_1_conv_batchnorm_beta", 
      "attr": {"fix_gamma": "True"}, 
      "inputs": []
    }, 
    {
      "op": "null", 
      "name": "mixed_tower_1_conv_batchnorm_moving_mean", 
      "attr": {
        "__init__": "[\"zero\", {}]", 
        "fix_gamma": "True"
      }, 
      "inputs": []
    }, 
    {
      "op": "null", 
      "name": "mixed_tower_1_conv_batchnorm_moving_var", 
      "attr": {
        "__init__": "[\"one\", {}]", 
        "fix_gamma": "True"
      }, 
      "inputs": []
    }, 
    {
      "op": "BatchNorm", 
      "name": "mixed_tower_1_conv_batchnorm", 
      "attr": {"fix_gamma": "True"}, 
      "inputs": [[69, 0, 0], [70, 0, 0], [71, 0, 0], [72, 0, 1], [73, 0, 1]]
    }, 
    {
      "op": "Activation", 
      "name": "mixed_tower_1_conv_relu", 
      "attr": {"act_type": "relu"}, 
      "inputs": [[74, 0, 0]]
    }, 
    {
      "op": "null", 
      "name": "mixed_tower_1_conv_1_conv2d_weight", 
      "attr": {
        "kernel": "(3, 3)", 
        "no_bias": "True", 
        "num_filter": "96", 
        "pad": "(1, 1)", 
        "stride": "(1, 1)"
      }, 
      "inputs": []
    }, 
    {
      "op": "Convolution", 
      "name": "mixed_tower_1_conv_1_conv2d", 
      "attr": {
        "kernel": "(3, 3)", 
        "no_bias": "True", 
        "num_filter": "96", 
        "pad": "(1, 1)", 
        "stride": "(1, 1)"
      }, 
      "inputs": [[75, 0, 0], [76, 0, 0]]
    }, 
    {
      "op": "null", 
      "name": "mixed_tower_1_conv_1_batchnorm_gamma", 
      "attr": {"fix_gamma": "True"}, 
      "inputs": []
    }, 
    {
      "op": "null", 
      "name": "mixed_tower_1_conv_1_batchnorm_beta", 
      "attr": {"fix_gamma": "True"}, 
      "inputs": []
    }, 
    {
      "op": "null", 
      "name": "mixed_tower_1_conv_1_batchnorm_moving_mean", 
      "attr": {
        "__init__": "[\"zero\", {}]", 
        "fix_gamma": "True"
      }, 
      "inputs": []
    }, 
    {
      "op": "null", 
      "name": "mixed_tower_1_conv_1_batchnorm_moving_var", 
      "attr": {
        "__init__": "[\"one\", {}]", 
        "fix_gamma": "True"
      }, 
      "inputs": []
    }, 
    {
      "op": "BatchNorm", 
      "name": "mixed_tower_1_conv_1_batchnorm", 
      "attr": {"fix_gamma": "True"}, 
      "inputs": [[77, 0, 0], [78, 0, 0], [79, 0, 0], [80, 0, 1], [81, 0, 1]]
    }, 
    {
      "op": "Activation", 
      "name": "mixed_tower_1_conv_1_relu", 
      "attr": {"act_type": "relu"}, 
      "inputs": [[82, 0, 0]]
    }, 
    {
      "op": "null", 
      "name": "mixed_tower_1_conv_2_conv2d_weight", 
      "attr": {
        "kernel": "(3, 3)", 
        "no_bias": "True", 
        "num_filter": "96", 
        "pad": "(1, 1)", 
        "stride": "(1, 1)"
      }, 
      "inputs": []
    }, 
    {
      "op": "Convolution", 
      "name": "mixed_tower_1_conv_2_conv2d", 
      "attr": {
        "kernel": "(3, 3)", 
        "no_bias": "True", 
        "num_filter": "96", 
        "pad": "(1, 1)", 
        "stride": "(1, 1)"
      }, 
      "inputs": [[83, 0, 0], [84, 0, 0]]
    }, 
    {
      "op": "null", 
      "name": "mixed_tower_1_conv_2_batchnorm_gamma", 
      "attr": {"fix_gamma": "True"}, 
      "inputs": []
    }, 
    {
      "op": "null", 
      "name": "mixed_tower_1_conv_2_batchnorm_beta", 
      "attr": {"fix_gamma": "True"}, 
      "inputs": []
    }, 
    {
      "op": "null", 
      "name": "mixed_tower_1_conv_2_batchnorm_moving_mean", 
      "attr": {
        "__init__": "[\"zero\", {}]", 
        "fix_gamma": "True"
      }, 
      "inputs": []
    }, 
    {
      "op": "null", 
      "name": "mixed_tower_1_conv_2_batchnorm_moving_var", 
      "attr": {
        "__init__": "[\"one\", {}]", 
        "fix_gamma": "True"
      }, 
      "inputs": []
    }, 
    {
      "op": "BatchNorm", 
      "name": "mixed_tower_1_conv_2_batchnorm", 
      "attr": {"fix_gamma": "True"}, 
      "inputs": [[85, 0, 0], [86, 0, 0], [87, 0, 0], [88, 0, 1], [89, 0, 1]]
    }, 
    {
      "op": "Activation", 
      "name": "mixed_tower_1_conv_2_relu", 
      "attr": {"act_type": "relu"}, 
      "inputs": [[90, 0, 0]]
    }, 
    {
      "op": "Pooling", 
      "name": "avg_pool_mixed_pool", 
      "attr": {
        "kernel": "(3, 3)", 
        "pad": "(1, 1)", 
        "pool_type": "avg", 
        "stride": "(1, 1)"
      }, 
      "inputs": [[43, 0, 0]]
    }, 
    {
      "op": "null", 
      "name": "mixed_tower_2_conv_conv2d_weight", 
      "attr": {
        "kernel": "(1, 1)", 
        "no_bias": "True", 
        "num_filter": "32", 
        "pad": "(0, 0)", 
        "stride": "(1, 1)"
      }, 
      "inputs": []
    }, 
    {
      "op": "Convolution", 
      "name": "mixed_tower_2_conv_conv2d", 
      "attr": {
        "kernel": "(1, 1)", 
        "no_bias": "True", 
        "num_filter": "32", 
        "pad": "(0, 0)", 
        "stride": "(1, 1)"
      }, 
      "inputs": [[92, 0, 0], [93, 0, 0]]
    }, 
    {
      "op": "null", 
      "name": "mixed_tower_2_conv_batchnorm_gamma", 
      "attr": {"fix_gamma": "True"}, 
      "inputs": []
    }, 
    {
      "op": "null", 
      "name": "mixed_tower_2_conv_batchnorm_beta", 
      "attr": {"fix_gamma": "True"}, 
      "inputs": []
    }, 
    {
      "op": "null", 
      "name": "mixed_tower_2_conv_batchnorm_moving_mean", 
      "attr": {
        "__init__": "[\"zero\", {}]", 
        "fix_gamma": "True"
      }, 
      "inputs": []
    }, 
    {
      "op": "null", 
      "name": "mixed_tower_2_conv_batchnorm_moving_var", 
      "attr": {
        "__init__": "[\"one\", {}]", 
        "fix_gamma": "True"
      }, 
      "inputs": []
    }, 
    {
      "op": "BatchNorm", 
      "name": "mixed_tower_2_conv_batchnorm", 
      "attr": {"fix_gamma": "True"}, 
      "inputs": [[94, 0, 0], [95, 0, 0], [96, 0, 0], [97, 0, 1], [98, 0, 1]]
    }, 
    {
      "op": "Activation", 
      "name": "mixed_tower_2_conv_relu", 
      "attr": {"act_type": "relu"}, 
      "inputs": [[99, 0, 0]]
    }, 
    {
      "op": "Concat", 
      "name": "ch_concat_mixed_chconcat", 
      "attr": {"num_args": "4"}, 
      "inputs": [[51, 0, 0], [67, 0, 0], [91, 0, 0], [100, 0, 0]]
    }, 
    {
      "op": "null", 
      "name": "mixed_1_conv_conv2d_weight", 
      "attr": {
        "kernel": "(1, 1)", 
        "no_bias": "True", 
        "num_filter": "64", 
        "pad": "(0, 0)", 
        "stride": "(1, 1)"
      }, 
      "inputs": []
    }, 
    {
      "op": "Convolution", 
      "name": "mixed_1_conv_conv2d", 
      "attr": {
        "kernel": "(1, 1)", 
        "no_bias": "True", 
        "num_filter": "64", 
        "pad": "(0, 0)", 
        "stride": "(1, 1)"
      }, 
      "inputs": [[101, 0, 0], [102, 0, 0]]
    }, 
    {
      "op": "null", 
      "name": "mixed_1_conv_batchnorm_gamma", 
      "attr": {"fix_gamma": "True"}, 
      "inputs": []
    }, 
    {
      "op": "null", 
      "name": "mixed_1_conv_batchnorm_beta", 
      "attr": {"fix_gamma": "True"}, 
      "inputs": []
    }, 
    {
      "op": "null", 
      "name": "mixed_1_conv_batchnorm_moving_mean", 
      "attr": {
        "__init__": "[\"zero\", {}]", 
        "fix_gamma": "True"
      }, 
      "inputs": []
    }, 
    {
      "op": "null", 
      "name": "mixed_1_conv_batchnorm_moving_var", 
      "attr": {
        "__init__": "[\"one\", {}]", 
        "fix_gamma": "True"
      }, 
      "inputs": []
    }, 
    {
      "op": "BatchNorm", 
      "name": "mixed_1_conv_batchnorm", 
      "attr": {"fix_gamma": "True"}, 
      "inputs": [[103, 0, 0], [104, 0, 0], [105, 0, 0], [106, 0, 1], [107, 0, 1]]
    }, 
    {
      "op": "Activation", 
      "name": "mixed_1_conv_relu", 
      "attr": {"act_type": "relu"}, 
      "inputs": [[108, 0, 0]]
    }, 
    {
      "op": "null", 
      "name": "mixed_1_tower_conv_conv2d_weight", 
      "attr": {
        "kernel": "(1, 1)", 
        "no_bias": "True", 
        "num_filter": "48", 
        "pad": "(0, 0)", 
        "stride": "(1, 1)"
      }, 
      "inputs": []
    }, 
    {
      "op": "Convolution", 
      "name": "mixed_1_tower_conv_conv2d", 
      "attr": {
        "kernel": "(1, 1)", 
        "no_bias": "True", 
        "num_filter": "48", 
        "pad": "(0, 0)", 
        "stride": "(1, 1)"
      }, 
      "inputs": [[101, 0, 0], [110, 0, 0]]
    }, 
    {
      "op": "null", 
      "name": "mixed_1_tower_conv_batchnorm_gamma", 
      "attr": {"fix_gamma": "True"}, 
      "inputs": []
    }, 
    {
      "op": "null", 
      "name": "mixed_1_tower_conv_batchnorm_beta", 
      "attr": {"fix_gamma": "True"}, 
      "inputs": []
    }, 
    {
      "op": "null", 
      "name": "mixed_1_tower_conv_batchnorm_moving_mean", 
      "attr": {
        "__init__": "[\"zero\", {}]", 
        "fix_gamma": "True"
      }, 
      "inputs": []
    }, 
    {
      "op": "null", 
      "name": "mixed_1_tower_conv_batchnorm_moving_var", 
      "attr": {
        "__init__": "[\"one\", {}]", 
        "fix_gamma": "True"
      }, 
      "inputs": []
    }, 
    {
      "op": "BatchNorm", 
      "name": "mixed_1_tower_conv_batchnorm", 
      "attr": {"fix_gamma": "True"}, 
      "inputs": [[111, 0, 0], [112, 0, 0], [113, 0, 0], [114, 0, 1], [115, 0, 1]]
    }, 
    {
      "op": "Activation", 
      "name": "mixed_1_tower_conv_relu", 
      "attr": {"act_type": "relu"}, 
      "inputs": [[116, 0, 0]]
    }, 
    {
      "op": "null", 
      "name": "mixed_1_tower_conv_1_conv2d_weight", 
      "attr": {
        "kernel": "(5, 5)", 
        "no_bias": "True", 
        "num_filter": "64", 
        "pad": "(2, 2)", 
        "stride": "(1, 1)"
      }, 
      "inputs": []
    }, 
    {
      "op": "Convolution", 
      "name": "mixed_1_tower_conv_1_conv2d", 
      "attr": {
        "kernel": "(5, 5)", 
        "no_bias": "True", 
        "num_filter": "64", 
        "pad": "(2, 2)", 
        "stride": "(1, 1)"
      }, 
      "inputs": [[117, 0, 0], [118, 0, 0]]
    }, 
    {
      "op": "null", 
      "name": "mixed_1_tower_conv_1_batchnorm_gamma", 
      "attr": {"fix_gamma": "True"}, 
      "inputs": []
    }, 
    {
      "op": "null", 
      "name": "mixed_1_tower_conv_1_batchnorm_beta", 
      "attr": {"fix_gamma": "True"}, 
      "inputs": []
    }, 
    {
      "op": "null", 
      "name": "mixed_1_tower_conv_1_batchnorm_moving_mean", 
      "attr": {
        "__init__": "[\"zero\", {}]", 
        "fix_gamma": "True"
      }, 
      "inputs": []
    }, 
    {
      "op": "null", 
      "name": "mixed_1_tower_conv_1_batchnorm_moving_var", 
      "attr": {
        "__init__": "[\"one\", {}]", 
        "fix_gamma": "True"
      }, 
      "inputs": []
    }, 
    {
      "op": "BatchNorm", 
      "name": "mixed_1_tower_conv_1_batchnorm", 
      "attr": {"fix_gamma": "True"}, 
      "inputs": [[119, 0, 0], [120, 0, 0], [121, 0, 0], [122, 0, 1], [123, 0, 1]]
    }, 
    {
      "op": "Activation", 
      "name": "mixed_1_tower_conv_1_relu", 
      "attr": {"act_type": "relu"}, 
      "inputs": [[124, 0, 0]]
    }, 
    {
      "op": "null", 
      "name": "mixed_1_tower_1_conv_conv2d_weight", 
      "attr": {
        "kernel": "(1, 1)", 
        "no_bias": "True", 
        "num_filter": "64", 
        "pad": "(0, 0)", 
        "stride": "(1, 1)"
      }, 
      "inputs": []
    }, 
    {
      "op": "Convolution", 
      "name": "mixed_1_tower_1_conv_conv2d", 
      "attr": {
        "kernel": "(1, 1)", 
        "no_bias": "True", 
        "num_filter": "64", 
        "pad": "(0, 0)", 
        "stride": "(1, 1)"
      }, 
      "inputs": [[101, 0, 0], [126, 0, 0]]
    }, 
    {
      "op": "null", 
      "name": "mixed_1_tower_1_conv_batchnorm_gamma", 
      "attr": {"fix_gamma": "True"}, 
      "inputs": []
    }, 
    {
      "op": "null", 
      "name": "mixed_1_tower_1_conv_batchnorm_beta", 
      "attr": {"fix_gamma": "True"}, 
      "inputs": []
    }, 
    {
      "op": "null", 
      "name": "mixed_1_tower_1_conv_batchnorm_moving_mean", 
      "attr": {
        "__init__": "[\"zero\", {}]", 
        "fix_gamma": "True"
      }, 
      "inputs": []
    }, 
    {
      "op": "null", 
      "name": "mixed_1_tower_1_conv_batchnorm_moving_var", 
      "attr": {
        "__init__": "[\"one\", {}]", 
        "fix_gamma": "True"
      }, 
      "inputs": []
    }, 
    {
      "op": "BatchNorm", 
      "name": "mixed_1_tower_1_conv_batchnorm", 
      "attr": {"fix_gamma": "True"}, 
      "inputs": [[127, 0, 0], [128, 0, 0], [129, 0, 0], [130, 0, 1], [131, 0, 1]]
    }, 
    {
      "op": "Activation", 
      "name": "mixed_1_tower_1_conv_relu", 
      "attr": {"act_type": "relu"}, 
      "inputs": [[132, 0, 0]]
    }, 
    {
      "op": "null", 
      "name": "mixed_1_tower_1_conv_1_conv2d_weight", 
      "attr": {
        "kernel": "(3, 3)", 
        "no_bias": "True", 
        "num_filter": "96", 
        "pad": "(1, 1)", 
        "stride": "(1, 1)"
      }, 
      "inputs": []
    }, 
    {
      "op": "Convolution", 
      "name": "mixed_1_tower_1_conv_1_conv2d", 
      "attr": {
        "kernel": "(3, 3)", 
        "no_bias": "True", 
        "num_filter": "96", 
        "pad": "(1, 1)", 
        "stride": "(1, 1)"
      }, 
      "inputs": [[133, 0, 0], [134, 0, 0]]
    }, 
    {
      "op": "null", 
      "name": "mixed_1_tower_1_conv_1_batchnorm_gamma", 
      "attr": {"fix_gamma": "True"}, 
      "inputs": []
    }, 
    {
      "op": "null", 
      "name": "mixed_1_tower_1_conv_1_batchnorm_beta", 
      "attr": {"fix_gamma": "True"}, 
      "inputs": []
    }, 
    {
      "op": "null", 
      "name": "mixed_1_tower_1_conv_1_batchnorm_moving_mean", 
      "attr": {
        "__init__": "[\"zero\", {}]", 
        "fix_gamma": "True"
      }, 
      "inputs": []
    }, 
    {
      "op": "null", 
      "name": "mixed_1_tower_1_conv_1_batchnorm_moving_var", 
      "attr": {
        "__init__": "[\"one\", {}]", 
        "fix_gamma": "True"
      }, 
      "inputs": []
    }, 
    {
      "op": "BatchNorm", 
      "name": "mixed_1_tower_1_conv_1_batchnorm", 
      "attr": {"fix_gamma": "True"}, 
      "inputs": [[135, 0, 0], [136, 0, 0], [137, 0, 0], [138, 0, 1], [139, 0, 1]]
    }, 
    {
      "op": "Activation", 
      "name": "mixed_1_tower_1_conv_1_relu", 
      "attr": {"act_type": "relu"}, 
      "inputs": [[140, 0, 0]]
    }, 
    {
      "op": "null", 
      "name": "mixed_1_tower_1_conv_2_conv2d_weight", 
      "attr": {
        "kernel": "(3, 3)", 
        "no_bias": "True", 
        "num_filter": "96", 
        "pad": "(1, 1)", 
        "stride": "(1, 1)"
      }, 
      "inputs": []
    }, 
    {
      "op": "Convolution", 
      "name": "mixed_1_tower_1_conv_2_conv2d", 
      "attr": {
        "kernel": "(3, 3)", 
        "no_bias": "True", 
        "num_filter": "96", 
        "pad": "(1, 1)", 
        "stride": "(1, 1)"
      }, 
      "inputs": [[141, 0, 0], [142, 0, 0]]
    }, 
    {
      "op": "null", 
      "name": "mixed_1_tower_1_conv_2_batchnorm_gamma", 
      "attr": {"fix_gamma": "True"}, 
      "inputs": []
    }, 
    {
      "op": "null", 
      "name": "mixed_1_tower_1_conv_2_batchnorm_beta", 
      "attr": {"fix_gamma": "True"}, 
      "inputs": []
    }, 
    {
      "op": "null", 
      "name": "mixed_1_tower_1_conv_2_batchnorm_moving_mean", 
      "attr": {
        "__init__": "[\"zero\", {}]", 
        "fix_gamma": "True"
      }, 
      "inputs": []
    }, 
    {
      "op": "null", 
      "name": "mixed_1_tower_1_conv_2_batchnorm_moving_var", 
      "attr": {
        "__init__": "[\"one\", {}]", 
        "fix_gamma": "True"
      }, 
      "inputs": []
    }, 
    {
      "op": "BatchNorm", 
      "name": "mixed_1_tower_1_conv_2_batchnorm", 
      "attr": {"fix_gamma": "True"}, 
      "inputs": [[143, 0, 0], [144, 0, 0], [145, 0, 0], [146, 0, 1], [147, 0, 1]]
    }, 
    {
      "op": "Activation", 
      "name": "mixed_1_tower_1_conv_2_relu", 
      "attr": {"act_type": "relu"}, 
      "inputs": [[148, 0, 0]]
    }, 
    {
      "op": "Pooling", 
      "name": "avg_pool_mixed_1_pool", 
      "attr": {
        "kernel": "(3, 3)", 
        "pad": "(1, 1)", 
        "pool_type": "avg", 
        "stride": "(1, 1)"
      }, 
      "inputs": [[101, 0, 0]]
    }, 
    {
      "op": "null", 
      "name": "mixed_1_tower_2_conv_conv2d_weight", 
      "attr": {
        "kernel": "(1, 1)", 
        "no_bias": "True", 
        "num_filter": "64", 
        "pad": "(0, 0)", 
        "stride": "(1, 1)"
      }, 
      "inputs": []
    }, 
    {
      "op": "Convolution", 
      "name": "mixed_1_tower_2_conv_conv2d", 
      "attr": {
        "kernel": "(1, 1)", 
        "no_bias": "True", 
        "num_filter": "64", 
        "pad": "(0, 0)", 
        "stride": "(1, 1)"
      }, 
      "inputs": [[150, 0, 0], [151, 0, 0]]
    }, 
    {
      "op": "null", 
      "name": "mixed_1_tower_2_conv_batchnorm_gamma", 
      "attr": {"fix_gamma": "True"}, 
      "inputs": []
    }, 
    {
      "op": "null", 
      "name": "mixed_1_tower_2_conv_batchnorm_beta", 
      "attr": {"fix_gamma": "True"}, 
      "inputs": []
    }, 
    {
      "op": "null", 
      "name": "mixed_1_tower_2_conv_batchnorm_moving_mean", 
      "attr": {
        "__init__": "[\"zero\", {}]", 
        "fix_gamma": "True"
      }, 
      "inputs": []
    }, 
    {
      "op": "null", 
      "name": "mixed_1_tower_2_conv_batchnorm_moving_var", 
      "attr": {
        "__init__": "[\"one\", {}]", 
        "fix_gamma": "True"
      }, 
      "inputs": []
    }, 
    {
      "op": "BatchNorm", 
      "name": "mixed_1_tower_2_conv_batchnorm", 
      "attr": {"fix_gamma": "True"}, 
      "inputs": [[152, 0, 0], [153, 0, 0], [154, 0, 0], [155, 0, 1], [156, 0, 1]]
    }, 
    {
      "op": "Activation", 
      "name": "mixed_1_tower_2_conv_relu", 
      "attr": {"act_type": "relu"}, 
      "inputs": [[157, 0, 0]]
    }, 
    {
      "op": "Concat", 
      "name": "ch_concat_mixed_1_chconcat", 
      "attr": {"num_args": "4"}, 
      "inputs": [[109, 0, 0], [125, 0, 0], [149, 0, 0], [158, 0, 0]]
    }, 
    {
      "op": "null", 
      "name": "mixed_2_conv_conv2d_weight", 
      "attr": {
        "kernel": "(1, 1)", 
        "no_bias": "True", 
        "num_filter": "64", 
        "pad": "(0, 0)", 
        "stride": "(1, 1)"
      }, 
      "inputs": []
    }, 
    {
      "op": "Convolution", 
      "name": "mixed_2_conv_conv2d", 
      "attr": {
        "kernel": "(1, 1)", 
        "no_bias": "True", 
        "num_filter": "64", 
        "pad": "(0, 0)", 
        "stride": "(1, 1)"
      }, 
      "inputs": [[159, 0, 0], [160, 0, 0]]
    }, 
    {
      "op": "null", 
      "name": "mixed_2_conv_batchnorm_gamma", 
      "attr": {"fix_gamma": "True"}, 
      "inputs": []
    }, 
    {
      "op": "null", 
      "name": "mixed_2_conv_batchnorm_beta", 
      "attr": {"fix_gamma": "True"}, 
      "inputs": []
    }, 
    {
      "op": "null", 
      "name": "mixed_2_conv_batchnorm_moving_mean", 
      "attr": {
        "__init__": "[\"zero\", {}]", 
        "fix_gamma": "True"
      }, 
      "inputs": []
    }, 
    {
      "op": "null", 
      "name": "mixed_2_conv_batchnorm_moving_var", 
      "attr": {
        "__init__": "[\"one\", {}]", 
        "fix_gamma": "True"
      }, 
      "inputs": []
    }, 
    {
      "op": "BatchNorm", 
      "name": "mixed_2_conv_batchnorm", 
      "attr": {"fix_gamma": "True"}, 
      "inputs": [[161, 0, 0], [162, 0, 0], [163, 0, 0], [164, 0, 1], [165, 0, 1]]
    }, 
    {
      "op": "Activation", 
      "name": "mixed_2_conv_relu", 
      "attr": {"act_type": "relu"}, 
      "inputs": [[166, 0, 0]]
    }, 
    {
      "op": "null", 
      "name": "mixed_2_tower_conv_conv2d_weight", 
      "attr": {
        "kernel": "(1, 1)", 
        "no_bias": "True", 
        "num_filter": "48", 
        "pad": "(0, 0)", 
        "stride": "(1, 1)"
      }, 
      "inputs": []
    }, 
    {
      "op": "Convolution", 
      "name": "mixed_2_tower_conv_conv2d", 
      "attr": {
        "kernel": "(1, 1)", 
        "no_bias": "True", 
        "num_filter": "48", 
        "pad": "(0, 0)", 
        "stride": "(1, 1)"
      }, 
      "inputs": [[159, 0, 0], [168, 0, 0]]
    }, 
    {
      "op": "null", 
      "name": "mixed_2_tower_conv_batchnorm_gamma", 
      "attr": {"fix_gamma": "True"}, 
      "inputs": []
    }, 
    {
      "op": "null", 
      "name": "mixed_2_tower_conv_batchnorm_beta", 
      "attr": {"fix_gamma": "True"}, 
      "inputs": []
    }, 
    {
      "op": "null", 
      "name": "mixed_2_tower_conv_batchnorm_moving_mean", 
      "attr": {
        "__init__": "[\"zero\", {}]", 
        "fix_gamma": "True"
      }, 
      "inputs": []
    }, 
    {
      "op": "null", 
      "name": "mixed_2_tower_conv_batchnorm_moving_var", 
      "attr": {
        "__init__": "[\"one\", {}]", 
        "fix_gamma": "True"
      }, 
      "inputs": []
    }, 
    {
      "op": "BatchNorm", 
      "name": "mixed_2_tower_conv_batchnorm", 
      "attr": {"fix_gamma": "True"}, 
      "inputs": [[169, 0, 0], [170, 0, 0], [171, 0, 0], [172, 0, 1], [173, 0, 1]]
    }, 
    {
      "op": "Activation", 
      "name": "mixed_2_tower_conv_relu", 
      "attr": {"act_type": "relu"}, 
      "inputs": [[174, 0, 0]]
    }, 
    {
      "op": "null", 
      "name": "mixed_2_tower_conv_1_conv2d_weight", 
      "attr": {
        "kernel": "(5, 5)", 
        "no_bias": "True", 
        "num_filter": "64", 
        "pad": "(2, 2)", 
        "stride": "(1, 1)"
      }, 
      "inputs": []
    }, 
    {
      "op": "Convolution", 
      "name": "mixed_2_tower_conv_1_conv2d", 
      "attr": {
        "kernel": "(5, 5)", 
        "no_bias": "True", 
        "num_filter": "64", 
        "pad": "(2, 2)", 
        "stride": "(1, 1)"
      }, 
      "inputs": [[175, 0, 0], [176, 0, 0]]
    }, 
    {
      "op": "null", 
      "name": "mixed_2_tower_conv_1_batchnorm_gamma", 
      "attr": {"fix_gamma": "True"}, 
      "inputs": []
    }, 
    {
      "op": "null", 
      "name": "mixed_2_tower_conv_1_batchnorm_beta", 
      "attr": {"fix_gamma": "True"}, 
      "inputs": []
    }, 
    {
      "op": "null", 
      "name": "mixed_2_tower_conv_1_batchnorm_moving_mean", 
      "attr": {
        "__init__": "[\"zero\", {}]", 
        "fix_gamma": "True"
      }, 
      "inputs": []
    }, 
    {
      "op": "null", 
      "name": "mixed_2_tower_conv_1_batchnorm_moving_var", 
      "attr": {
        "__init__": "[\"one\", {}]", 
        "fix_gamma": "True"
      }, 
      "inputs": []
    }, 
    {
      "op": "BatchNorm", 
      "name": "mixed_2_tower_conv_1_batchnorm", 
      "attr": {"fix_gamma": "True"}, 
      "inputs": [[177, 0, 0], [178, 0, 0], [179, 0, 0], [180, 0, 1], [181, 0, 1]]
    }, 
    {
      "op": "Activation", 
      "name": "mixed_2_tower_conv_1_relu", 
      "attr": {"act_type": "relu"}, 
      "inputs": [[182, 0, 0]]
    }, 
    {
      "op": "null", 
      "name": "mixed_2_tower_1_conv_conv2d_weight", 
      "attr": {
        "kernel": "(1, 1)", 
        "no_bias": "True", 
        "num_filter": "64", 
        "pad": "(0, 0)", 
        "stride": "(1, 1)"
      }, 
      "inputs": []
    }, 
    {
      "op": "Convolution", 
      "name": "mixed_2_tower_1_conv_conv2d", 
      "attr": {
        "kernel": "(1, 1)", 
        "no_bias": "True", 
        "num_filter": "64", 
        "pad": "(0, 0)", 
        "stride": "(1, 1)"
      }, 
      "inputs": [[159, 0, 0], [184, 0, 0]]
    }, 
    {
      "op": "null", 
      "name": "mixed_2_tower_1_conv_batchnorm_gamma", 
      "attr": {"fix_gamma": "True"}, 
      "inputs": []
    }, 
    {
      "op": "null", 
      "name": "mixed_2_tower_1_conv_batchnorm_beta", 
      "attr": {"fix_gamma": "True"}, 
      "inputs": []
    }, 
    {
      "op": "null", 
      "name": "mixed_2_tower_1_conv_batchnorm_moving_mean", 
      "attr": {
        "__init__": "[\"zero\", {}]", 
        "fix_gamma": "True"
      }, 
      "inputs": []
    }, 
    {
      "op": "null", 
      "name": "mixed_2_tower_1_conv_batchnorm_moving_var", 
      "attr": {
        "__init__": "[\"one\", {}]", 
        "fix_gamma": "True"
      }, 
      "inputs": []
    }, 
    {
      "op": "BatchNorm", 
      "name": "mixed_2_tower_1_conv_batchnorm", 
      "attr": {"fix_gamma": "True"}, 
      "inputs": [[185, 0, 0], [186, 0, 0], [187, 0, 0], [188, 0, 1], [189, 0, 1]]
    }, 
    {
      "op": "Activation", 
      "name": "mixed_2_tower_1_conv_relu", 
      "attr": {"act_type": "relu"}, 
      "inputs": [[190, 0, 0]]
    }, 
    {
      "op": "null", 
      "name": "mixed_2_tower_1_conv_1_conv2d_weight", 
      "attr": {
        "kernel": "(3, 3)", 
        "no_bias": "True", 
        "num_filter": "96", 
        "pad": "(1, 1)", 
        "stride": "(1, 1)"
      }, 
      "inputs": []
    }, 
    {
      "op": "Convolution", 
      "name": "mixed_2_tower_1_conv_1_conv2d", 
      "attr": {
        "kernel": "(3, 3)", 
        "no_bias": "True", 
        "num_filter": "96", 
        "pad": "(1, 1)", 
        "stride": "(1, 1)"
      }, 
      "inputs": [[191, 0, 0], [192, 0, 0]]
    }, 
    {
      "op": "null", 
      "name": "mixed_2_tower_1_conv_1_batchnorm_gamma", 
      "attr": {"fix_gamma": "True"}, 
      "inputs": []
    }, 
    {
      "op": "null", 
      "name": "mixed_2_tower_1_conv_1_batchnorm_beta", 
      "attr": {"fix_gamma": "True"}, 
      "inputs": []
    }, 
    {
      "op": "null", 
      "name": "mixed_2_tower_1_conv_1_batchnorm_moving_mean", 
      "attr": {
        "__init__": "[\"zero\", {}]", 
        "fix_gamma": "True"
      }, 
      "inputs": []
    }, 
    {
      "op": "null", 
      "name": "mixed_2_tower_1_conv_1_batchnorm_moving_var", 
      "attr": {
        "__init__": "[\"one\", {}]", 
        "fix_gamma": "True"
      }, 
      "inputs": []
    }, 
    {
      "op": "BatchNorm", 
      "name": "mixed_2_tower_1_conv_1_batchnorm", 
      "attr": {"fix_gamma": "True"}, 
      "inputs": [[193, 0, 0], [194, 0, 0], [195, 0, 0], [196, 0, 1], [197, 0, 1]]
    }, 
    {
      "op": "Activation", 
      "name": "mixed_2_tower_1_conv_1_relu", 
      "attr": {"act_type": "relu"}, 
      "inputs": [[198, 0, 0]]
    }, 
    {
      "op": "null", 
      "name": "mixed_2_tower_1_conv_2_conv2d_weight", 
      "attr": {
        "kernel": "(3, 3)", 
        "no_bias": "True", 
        "num_filter": "96", 
        "pad": "(1, 1)", 
        "stride": "(1, 1)"
      }, 
      "inputs": []
    }, 
    {
      "op": "Convolution", 
      "name": "mixed_2_tower_1_conv_2_conv2d", 
      "attr": {
        "kernel": "(3, 3)", 
        "no_bias": "True", 
        "num_filter": "96", 
        "pad": "(1, 1)", 
        "stride": "(1, 1)"
      }, 
      "inputs": [[199, 0, 0], [200, 0, 0]]
    }, 
    {
      "op": "null", 
      "name": "mixed_2_tower_1_conv_2_batchnorm_gamma", 
      "attr": {"fix_gamma": "True"}, 
      "inputs": []
    }, 
    {
      "op": "null", 
      "name": "mixed_2_tower_1_conv_2_batchnorm_beta", 
      "attr": {"fix_gamma": "True"}, 
      "inputs": []
    }, 
    {
      "op": "null", 
      "name": "mixed_2_tower_1_conv_2_batchnorm_moving_mean", 
      "attr": {
        "__init__": "[\"zero\", {}]", 
        "fix_gamma": "True"
      }, 
      "inputs": []
    }, 
    {
      "op": "null", 
      "name": "mixed_2_tower_1_conv_2_batchnorm_moving_var", 
      "attr": {
        "__init__": "[\"one\", {}]", 
        "fix_gamma": "True"
      }, 
      "inputs": []
    }, 
    {
      "op": "BatchNorm", 
      "name": "mixed_2_tower_1_conv_2_batchnorm", 
      "attr": {"fix_gamma": "True"}, 
      "inputs": [[201, 0, 0], [202, 0, 0], [203, 0, 0], [204, 0, 1], [205, 0, 1]]
    }, 
    {
      "op": "Activation", 
      "name": "mixed_2_tower_1_conv_2_relu", 
      "attr": {"act_type": "relu"}, 
      "inputs": [[206, 0, 0]]
    }, 
    {
      "op": "Pooling", 
      "name": "avg_pool_mixed_2_pool", 
      "attr": {
        "kernel": "(3, 3)", 
        "pad": "(1, 1)", 
        "pool_type": "avg", 
        "stride": "(1, 1)"
      }, 
      "inputs": [[159, 0, 0]]
    }, 
    {
      "op": "null", 
      "name": "mixed_2_tower_2_conv_conv2d_weight", 
      "attr": {
        "kernel": "(1, 1)", 
        "no_bias": "True", 
        "num_filter": "64", 
        "pad": "(0, 0)", 
        "stride": "(1, 1)"
      }, 
      "inputs": []
    }, 
    {
      "op": "Convolution", 
      "name": "mixed_2_tower_2_conv_conv2d", 
      "attr": {
        "kernel": "(1, 1)", 
        "no_bias": "True", 
        "num_filter": "64", 
        "pad": "(0, 0)", 
        "stride": "(1, 1)"
      }, 
      "inputs": [[208, 0, 0], [209, 0, 0]]
    }, 
    {
      "op": "null", 
      "name": "mixed_2_tower_2_conv_batchnorm_gamma", 
      "attr": {"fix_gamma": "True"}, 
      "inputs": []
    }, 
    {
      "op": "null", 
      "name": "mixed_2_tower_2_conv_batchnorm_beta", 
      "attr": {"fix_gamma": "True"}, 
      "inputs": []
    }, 
    {
      "op": "null", 
      "name": "mixed_2_tower_2_conv_batchnorm_moving_mean", 
      "attr": {
        "__init__": "[\"zero\", {}]", 
        "fix_gamma": "True"
      }, 
      "inputs": []
    }, 
    {
      "op": "null", 
      "name": "mixed_2_tower_2_conv_batchnorm_moving_var", 
      "attr": {
        "__init__": "[\"one\", {}]", 
        "fix_gamma": "True"
      }, 
      "inputs": []
    }, 
    {
      "op": "BatchNorm", 
      "name": "mixed_2_tower_2_conv_batchnorm", 
      "attr": {"fix_gamma": "True"}, 
      "inputs": [[210, 0, 0], [211, 0, 0], [212, 0, 0], [213, 0, 1], [214, 0, 1]]
    }, 
    {
      "op": "Activation", 
      "name": "mixed_2_tower_2_conv_relu", 
      "attr": {"act_type": "relu"}, 
      "inputs": [[215, 0, 0]]
    }, 
    {
      "op": "Concat", 
      "name": "ch_concat_mixed_2_chconcat", 
      "attr": {"num_args": "4"}, 
      "inputs": [[167, 0, 0], [183, 0, 0], [207, 0, 0], [216, 0, 0]]
    }, 
    {
      "op": "null", 
      "name": "mixed_3_conv_conv2d_weight", 
      "attr": {
        "kernel": "(3, 3)", 
        "no_bias": "True", 
        "num_filter": "384", 
        "pad": "(0, 0)", 
        "stride": "(2, 2)"
      }, 
      "inputs": []
    }, 
    {
      "op": "Convolution", 
      "name": "mixed_3_conv_conv2d", 
      "attr": {
        "kernel": "(3, 3)", 
        "no_bias": "True", 
        "num_filter": "384", 
        "pad": "(0, 0)", 
        "stride": "(2, 2)"
      }, 
      "inputs": [[217, 0, 0], [218, 0, 0]]
    }, 
    {
      "op": "null", 
      "name": "mixed_3_conv_batchnorm_gamma", 
      "attr": {"fix_gamma": "True"}, 
      "inputs": []
    }, 
    {
      "op": "null", 
      "name": "mixed_3_conv_batchnorm_beta", 
      "attr": {"fix_gamma": "True"}, 
      "inputs": []
    }, 
    {
      "op": "null", 
      "name": "mixed_3_conv_batchnorm_moving_mean", 
      "attr": {
        "__init__": "[\"zero\", {}]", 
        "fix_gamma": "True"
      }, 
      "inputs": []
    }, 
    {
      "op": "null", 
      "name": "mixed_3_conv_batchnorm_moving_var", 
      "attr": {
        "__init__": "[\"one\", {}]", 
        "fix_gamma": "True"
      }, 
      "inputs": []
    }, 
    {
      "op": "BatchNorm", 
      "name": "mixed_3_conv_batchnorm", 
      "attr": {"fix_gamma": "True"}, 
      "inputs": [[219, 0, 0], [220, 0, 0], [221, 0, 0], [222, 0, 1], [223, 0, 1]]
    }, 
    {
      "op": "Activation", 
      "name": "mixed_3_conv_relu", 
      "attr": {"act_type": "relu"}, 
      "inputs": [[224, 0, 0]]
    }, 
    {
      "op": "null", 
      "name": "mixed_3_tower_conv_conv2d_weight", 
      "attr": {
        "kernel": "(1, 1)", 
        "no_bias": "True", 
        "num_filter": "64", 
        "pad": "(0, 0)", 
        "stride": "(1, 1)"
      }, 
      "inputs": []
    }, 
    {
      "op": "Convolution", 
      "name": "mixed_3_tower_conv_conv2d", 
      "attr": {
        "kernel": "(1, 1)", 
        "no_bias": "True", 
        "num_filter": "64", 
        "pad": "(0, 0)", 
        "stride": "(1, 1)"
      }, 
      "inputs": [[217, 0, 0], [226, 0, 0]]
    }, 
    {
      "op": "null", 
      "name": "mixed_3_tower_conv_batchnorm_gamma", 
      "attr": {"fix_gamma": "True"}, 
      "inputs": []
    }, 
    {
      "op": "null", 
      "name": "mixed_3_tower_conv_batchnorm_beta", 
      "attr": {"fix_gamma": "True"}, 
      "inputs": []
    }, 
    {
      "op": "null", 
      "name": "mixed_3_tower_conv_batchnorm_moving_mean", 
      "attr": {
        "__init__": "[\"zero\", {}]", 
        "fix_gamma": "True"
      }, 
      "inputs": []
    }, 
    {
      "op": "null", 
      "name": "mixed_3_tower_conv_batchnorm_moving_var", 
      "attr": {
        "__init__": "[\"one\", {}]", 
        "fix_gamma": "True"
      }, 
      "inputs": []
    }, 
    {
      "op": "BatchNorm", 
      "name": "mixed_3_tower_conv_batchnorm", 
      "attr": {"fix_gamma": "True"}, 
      "inputs": [[227, 0, 0], [228, 0, 0], [229, 0, 0], [230, 0, 1], [231, 0, 1]]
    }, 
    {
      "op": "Activation", 
      "name": "mixed_3_tower_conv_relu", 
      "attr": {"act_type": "relu"}, 
      "inputs": [[232, 0, 0]]
    }, 
    {
      "op": "null", 
      "name": "mixed_3_tower_conv_1_conv2d_weight", 
      "attr": {
        "kernel": "(3, 3)", 
        "no_bias": "True", 
        "num_filter": "96", 
        "pad": "(1, 1)", 
        "stride": "(1, 1)"
      }, 
      "inputs": []
    }, 
    {
      "op": "Convolution", 
      "name": "mixed_3_tower_conv_1_conv2d", 
      "attr": {
        "kernel": "(3, 3)", 
        "no_bias": "True", 
        "num_filter": "96", 
        "pad": "(1, 1)", 
        "stride": "(1, 1)"
      }, 
      "inputs": [[233, 0, 0], [234, 0, 0]]
    }, 
    {
      "op": "null", 
      "name": "mixed_3_tower_conv_1_batchnorm_gamma", 
      "attr": {"fix_gamma": "True"}, 
      "inputs": []
    }, 
    {
      "op": "null", 
      "name": "mixed_3_tower_conv_1_batchnorm_beta", 
      "attr": {"fix_gamma": "True"}, 
      "inputs": []
    }, 
    {
      "op": "null", 
      "name": "mixed_3_tower_conv_1_batchnorm_moving_mean", 
      "attr": {
        "__init__": "[\"zero\", {}]", 
        "fix_gamma": "True"
      }, 
      "inputs": []
    }, 
    {
      "op": "null", 
      "name": "mixed_3_tower_conv_1_batchnorm_moving_var", 
      "attr": {
        "__init__": "[\"one\", {}]", 
        "fix_gamma": "True"
      }, 
      "inputs": []
    }, 
    {
      "op": "BatchNorm", 
      "name": "mixed_3_tower_conv_1_batchnorm", 
      "attr": {"fix_gamma": "True"}, 
      "inputs": [[235, 0, 0], [236, 0, 0], [237, 0, 0], [238, 0, 1], [239, 0, 1]]
    }, 
    {
      "op": "Activation", 
      "name": "mixed_3_tower_conv_1_relu", 
      "attr": {"act_type": "relu"}, 
      "inputs": [[240, 0, 0]]
    }, 
    {
      "op": "null", 
      "name": "mixed_3_tower_conv_2_conv2d_weight", 
      "attr": {
        "kernel": "(3, 3)", 
        "no_bias": "True", 
        "num_filter": "96", 
        "pad": "(0, 0)", 
        "stride": "(2, 2)"
      }, 
      "inputs": []
    }, 
    {
      "op": "Convolution", 
      "name": "mixed_3_tower_conv_2_conv2d", 
      "attr": {
        "kernel": "(3, 3)", 
        "no_bias": "True", 
        "num_filter": "96", 
        "pad": "(0, 0)", 
        "stride": "(2, 2)"
      }, 
      "inputs": [[241, 0, 0], [242, 0, 0]]
    }, 
    {
      "op": "null", 
      "name": "mixed_3_tower_conv_2_batchnorm_gamma", 
      "attr": {"fix_gamma": "True"}, 
      "inputs": []
    }, 
    {
      "op": "null", 
      "name": "mixed_3_tower_conv_2_batchnorm_beta", 
      "attr": {"fix_gamma": "True"}, 
      "inputs": []
    }, 
    {
      "op": "null", 
      "name": "mixed_3_tower_conv_2_batchnorm_moving_mean", 
      "attr": {
        "__init__": "[\"zero\", {}]", 
        "fix_gamma": "True"
      }, 
      "inputs": []
    }, 
    {
      "op": "null", 
      "name": "mixed_3_tower_conv_2_batchnorm_moving_var", 
      "attr": {
        "__init__": "[\"one\", {}]", 
        "fix_gamma": "True"
      }, 
      "inputs": []
    }, 
    {
      "op": "BatchNorm", 
      "name": "mixed_3_tower_conv_2_batchnorm", 
      "attr": {"fix_gamma": "True"}, 
      "inputs": [[243, 0, 0], [244, 0, 0], [245, 0, 0], [246, 0, 1], [247, 0, 1]]
    }, 
    {
      "op": "Activation", 
      "name": "mixed_3_tower_conv_2_relu", 
      "attr": {"act_type": "relu"}, 
      "inputs": [[248, 0, 0]]
    }, 
    {
      "op": "Pooling", 
      "name": "max_pool_mixed_3_pool", 
      "attr": {
        "kernel": "(3, 3)", 
        "pad": "(0, 0)", 
        "pool_type": "max", 
        "stride": "(2, 2)"
      }, 
      "inputs": [[217, 0, 0]]
    }, 
    {
      "op": "Concat", 
      "name": "ch_concat_mixed_3_chconcat", 
      "attr": {"num_args": "3"}, 
      "inputs": [[225, 0, 0], [249, 0, 0], [250, 0, 0]]
    }, 
    {
      "op": "null", 
      "name": "mixed_4_conv_conv2d_weight", 
      "attr": {
        "kernel": "(1, 1)", 
        "no_bias": "True", 
        "num_filter": "192", 
        "pad": "(0, 0)", 
        "stride": "(1, 1)"
      }, 
      "inputs": []
    }, 
    {
      "op": "Convolution", 
      "name": "mixed_4_conv_conv2d", 
      "attr": {
        "kernel": "(1, 1)", 
        "no_bias": "True", 
        "num_filter": "192", 
        "pad": "(0, 0)", 
        "stride": "(1, 1)"
      }, 
      "inputs": [[251, 0, 0], [252, 0, 0]]
    }, 
    {
      "op": "null", 
      "name": "mixed_4_conv_batchnorm_gamma", 
      "attr": {"fix_gamma": "True"}, 
      "inputs": []
    }, 
    {
      "op": "null", 
      "name": "mixed_4_conv_batchnorm_beta", 
      "attr": {"fix_gamma": "True"}, 
      "inputs": []
    }, 
    {
      "op": "null", 
      "name": "mixed_4_conv_batchnorm_moving_mean", 
      "attr": {
        "__init__": "[\"zero\", {}]", 
        "fix_gamma": "True"
      }, 
      "inputs": []
    }, 
    {
      "op": "null", 
      "name": "mixed_4_conv_batchnorm_moving_var", 
      "attr": {
        "__init__": "[\"one\", {}]", 
        "fix_gamma": "True"
      }, 
      "inputs": []
    }, 
    {
      "op": "BatchNorm", 
      "name": "mixed_4_conv_batchnorm", 
      "attr": {"fix_gamma": "True"}, 
      "inputs": [[253, 0, 0], [254, 0, 0], [255, 0, 0], [256, 0, 1], [257, 0, 1]]
    }, 
    {
      "op": "Activation", 
      "name": "mixed_4_conv_relu", 
      "attr": {"act_type": "relu"}, 
      "inputs": [[258, 0, 0]]
    }, 
    {
      "op": "null", 
      "name": "mixed_4_tower_conv_conv2d_weight", 
      "attr": {
        "kernel": "(1, 1)", 
        "no_bias": "True", 
        "num_filter": "128", 
        "pad": "(0, 0)", 
        "stride": "(1, 1)"
      }, 
      "inputs": []
    }, 
    {
      "op": "Convolution", 
      "name": "mixed_4_tower_conv_conv2d", 
      "attr": {
        "kernel": "(1, 1)", 
        "no_bias": "True", 
        "num_filter": "128", 
        "pad": "(0, 0)", 
        "stride": "(1, 1)"
      }, 
      "inputs": [[251, 0, 0], [260, 0, 0]]
    }, 
    {
      "op": "null", 
      "name": "mixed_4_tower_conv_batchnorm_gamma", 
      "attr": {"fix_gamma": "True"}, 
      "inputs": []
    }, 
    {
      "op": "null", 
      "name": "mixed_4_tower_conv_batchnorm_beta", 
      "attr": {"fix_gamma": "True"}, 
      "inputs": []
    }, 
    {
      "op": "null", 
      "name": "mixed_4_tower_conv_batchnorm_moving_mean", 
      "attr": {
        "__init__": "[\"zero\", {}]", 
        "fix_gamma": "True"
      }, 
      "inputs": []
    }, 
    {
      "op": "null", 
      "name": "mixed_4_tower_conv_batchnorm_moving_var", 
      "attr": {
        "__init__": "[\"one\", {}]", 
        "fix_gamma": "True"
      }, 
      "inputs": []
    }, 
    {
      "op": "BatchNorm", 
      "name": "mixed_4_tower_conv_batchnorm", 
      "attr": {"fix_gamma": "True"}, 
      "inputs": [[261, 0, 0], [262, 0, 0], [263, 0, 0], [264, 0, 1], [265, 0, 1]]
    }, 
    {
      "op": "Activation", 
      "name": "mixed_4_tower_conv_relu", 
      "attr": {"act_type": "relu"}, 
      "inputs": [[266, 0, 0]]
    }, 
    {
      "op": "null", 
      "name": "mixed_4_tower_conv_1_conv2d_weight", 
      "attr": {
        "kernel": "(1, 7)", 
        "no_bias": "True", 
        "num_filter": "128", 
        "pad": "(0, 3)", 
        "stride": "(1, 1)"
      }, 
      "inputs": []
    }, 
    {
      "op": "Convolution", 
      "name": "mixed_4_tower_conv_1_conv2d", 
      "attr": {
        "kernel": "(1, 7)", 
        "no_bias": "True", 
        "num_filter": "128", 
        "pad": "(0, 3)", 
        "stride": "(1, 1)"
      }, 
      "inputs": [[267, 0, 0], [268, 0, 0]]
    }, 
    {
      "op": "null", 
      "name": "mixed_4_tower_conv_1_batchnorm_gamma", 
      "attr": {"fix_gamma": "True"}, 
      "inputs": []
    }, 
    {
      "op": "null", 
      "name": "mixed_4_tower_conv_1_batchnorm_beta", 
      "attr": {"fix_gamma": "True"}, 
      "inputs": []
    }, 
    {
      "op": "null", 
      "name": "mixed_4_tower_conv_1_batchnorm_moving_mean", 
      "attr": {
        "__init__": "[\"zero\", {}]", 
        "fix_gamma": "True"
      }, 
      "inputs": []
    }, 
    {
      "op": "null", 
      "name": "mixed_4_tower_conv_1_batchnorm_moving_var", 
      "attr": {
        "__init__": "[\"one\", {}]", 
        "fix_gamma": "True"
      }, 
      "inputs": []
    }, 
    {
      "op": "BatchNorm", 
      "name": "mixed_4_tower_conv_1_batchnorm", 
      "attr": {"fix_gamma": "True"}, 
      "inputs": [[269, 0, 0], [270, 0, 0], [271, 0, 0], [272, 0, 1], [273, 0, 1]]
    }, 
    {
      "op": "Activation", 
      "name": "mixed_4_tower_conv_1_relu", 
      "attr": {"act_type": "relu"}, 
      "inputs": [[274, 0, 0]]
    }, 
    {
      "op": "null", 
      "name": "mixed_4_tower_conv_2_conv2d_weight", 
      "attr": {
        "kernel": "(7, 1)", 
        "no_bias": "True", 
        "num_filter": "192", 
        "pad": "(3, 0)", 
        "stride": "(1, 1)"
      }, 
      "inputs": []
    }, 
    {
      "op": "Convolution", 
      "name": "mixed_4_tower_conv_2_conv2d", 
      "attr": {
        "kernel": "(7, 1)", 
        "no_bias": "True", 
        "num_filter": "192", 
        "pad": "(3, 0)", 
        "stride": "(1, 1)"
      }, 
      "inputs": [[275, 0, 0], [276, 0, 0]]
    }, 
    {
      "op": "null", 
      "name": "mixed_4_tower_conv_2_batchnorm_gamma", 
      "attr": {"fix_gamma": "True"}, 
      "inputs": []
    }, 
    {
      "op": "null", 
      "name": "mixed_4_tower_conv_2_batchnorm_beta", 
      "attr": {"fix_gamma": "True"}, 
      "inputs": []
    }, 
    {
      "op": "null", 
      "name": "mixed_4_tower_conv_2_batchnorm_moving_mean", 
      "attr": {
        "__init__": "[\"zero\", {}]", 
        "fix_gamma": "True"
      }, 
      "inputs": []
    }, 
    {
      "op": "null", 
      "name": "mixed_4_tower_conv_2_batchnorm_moving_var", 
      "attr": {
        "__init__": "[\"one\", {}]", 
        "fix_gamma": "True"
      }, 
      "inputs": []
    }, 
    {
      "op": "BatchNorm", 
      "name": "mixed_4_tower_conv_2_batchnorm", 
      "attr": {"fix_gamma": "True"}, 
      "inputs": [[277, 0, 0], [278, 0, 0], [279, 0, 0], [280, 0, 1], [281, 0, 1]]
    }, 
    {
      "op": "Activation", 
      "name": "mixed_4_tower_conv_2_relu", 
      "attr": {"act_type": "relu"}, 
      "inputs": [[282, 0, 0]]
    }, 
    {
      "op": "null", 
      "name": "mixed_4_tower_1_conv_conv2d_weight", 
      "attr": {
        "kernel": "(1, 1)", 
        "no_bias": "True", 
        "num_filter": "128", 
        "pad": "(0, 0)", 
        "stride": "(1, 1)"
      }, 
      "inputs": []
    }, 
    {
      "op": "Convolution", 
      "name": "mixed_4_tower_1_conv_conv2d", 
      "attr": {
        "kernel": "(1, 1)", 
        "no_bias": "True", 
        "num_filter": "128", 
        "pad": "(0, 0)", 
        "stride": "(1, 1)"
      }, 
      "inputs": [[251, 0, 0], [284, 0, 0]]
    }, 
    {
      "op": "null", 
      "name": "mixed_4_tower_1_conv_batchnorm_gamma", 
      "attr": {"fix_gamma": "True"}, 
      "inputs": []
    }, 
    {
      "op": "null", 
      "name": "mixed_4_tower_1_conv_batchnorm_beta", 
      "attr": {"fix_gamma": "True"}, 
      "inputs": []
    }, 
    {
      "op": "null", 
      "name": "mixed_4_tower_1_conv_batchnorm_moving_mean", 
      "attr": {
        "__init__": "[\"zero\", {}]", 
        "fix_gamma": "True"
      }, 
      "inputs": []
    }, 
    {
      "op": "null", 
      "name": "mixed_4_tower_1_conv_batchnorm_moving_var", 
      "attr": {
        "__init__": "[\"one\", {}]", 
        "fix_gamma": "True"
      }, 
      "inputs": []
    }, 
    {
      "op": "BatchNorm", 
      "name": "mixed_4_tower_1_conv_batchnorm", 
      "attr": {"fix_gamma": "True"}, 
      "inputs": [[285, 0, 0], [286, 0, 0], [287, 0, 0], [288, 0, 1], [289, 0, 1]]
    }, 
    {
      "op": "Activation", 
      "name": "mixed_4_tower_1_conv_relu", 
      "attr": {"act_type": "relu"}, 
      "inputs": [[290, 0, 0]]
    }, 
    {
      "op": "null", 
      "name": "mixed_4_tower_1_conv_1_conv2d_weight", 
      "attr": {
        "kernel": "(7, 1)", 
        "no_bias": "True", 
        "num_filter": "128", 
        "pad": "(3, 0)", 
        "stride": "(1, 1)"
      }, 
      "inputs": []
    }, 
    {
      "op": "Convolution", 
      "name": "mixed_4_tower_1_conv_1_conv2d", 
      "attr": {
        "kernel": "(7, 1)", 
        "no_bias": "True", 
        "num_filter": "128", 
        "pad": "(3, 0)", 
        "stride": "(1, 1)"
      }, 
      "inputs": [[291, 0, 0], [292, 0, 0]]
    }, 
    {
      "op": "null", 
      "name": "mixed_4_tower_1_conv_1_batchnorm_gamma", 
      "attr": {"fix_gamma": "True"}, 
      "inputs": []
    }, 
    {
      "op": "null", 
      "name": "mixed_4_tower_1_conv_1_batchnorm_beta", 
      "attr": {"fix_gamma": "True"}, 
      "inputs": []
    }, 
    {
      "op": "null", 
      "name": "mixed_4_tower_1_conv_1_batchnorm_moving_mean", 
      "attr": {
        "__init__": "[\"zero\", {}]", 
        "fix_gamma": "True"
      }, 
      "inputs": []
    }, 
    {
      "op": "null", 
      "name": "mixed_4_tower_1_conv_1_batchnorm_moving_var", 
      "attr": {
        "__init__": "[\"one\", {}]", 
        "fix_gamma": "True"
      }, 
      "inputs": []
    }, 
    {
      "op": "BatchNorm", 
      "name": "mixed_4_tower_1_conv_1_batchnorm", 
      "attr": {"fix_gamma": "True"}, 
      "inputs": [[293, 0, 0], [294, 0, 0], [295, 0, 0], [296, 0, 1], [297, 0, 1]]
    }, 
    {
      "op": "Activation", 
      "name": "mixed_4_tower_1_conv_1_relu", 
      "attr": {"act_type": "relu"}, 
      "inputs": [[298, 0, 0]]
    }, 
    {
      "op": "null", 
      "name": "mixed_4_tower_1_conv_2_conv2d_weight", 
      "attr": {
        "kernel": "(1, 7)", 
        "no_bias": "True", 
        "num_filter": "128", 
        "pad": "(0, 3)", 
        "stride": "(1, 1)"
      }, 
      "inputs": []
    }, 
    {
      "op": "Convolution", 
      "name": "mixed_4_tower_1_conv_2_conv2d", 
      "attr": {
        "kernel": "(1, 7)", 
        "no_bias": "True", 
        "num_filter": "128", 
        "pad": "(0, 3)", 
        "stride": "(1, 1)"
      }, 
      "inputs": [[299, 0, 0], [300, 0, 0]]
    }, 
    {
      "op": "null", 
      "name": "mixed_4_tower_1_conv_2_batchnorm_gamma", 
      "attr": {"fix_gamma": "True"}, 
      "inputs": []
    }, 
    {
      "op": "null", 
      "name": "mixed_4_tower_1_conv_2_batchnorm_beta", 
      "attr": {"fix_gamma": "True"}, 
      "inputs": []
    }, 
    {
      "op": "null", 
      "name": "mixed_4_tower_1_conv_2_batchnorm_moving_mean", 
      "attr": {
        "__init__": "[\"zero\", {}]", 
        "fix_gamma": "True"
      }, 
      "inputs": []
    }, 
    {
      "op": "null", 
      "name": "mixed_4_tower_1_conv_2_batchnorm_moving_var", 
      "attr": {
        "__init__": "[\"one\", {}]", 
        "fix_gamma": "True"
      }, 
      "inputs": []
    }, 
    {
      "op": "BatchNorm", 
      "name": "mixed_4_tower_1_conv_2_batchnorm", 
      "attr": {"fix_gamma": "True"}, 
      "inputs": [[301, 0, 0], [302, 0, 0], [303, 0, 0], [304, 0, 1], [305, 0, 1]]
    }, 
    {
      "op": "Activation", 
      "name": "mixed_4_tower_1_conv_2_relu", 
      "attr": {"act_type": "relu"}, 
      "inputs": [[306, 0, 0]]
    }, 
    {
      "op": "null", 
      "name": "mixed_4_tower_1_conv_3_conv2d_weight", 
      "attr": {
        "kernel": "(7, 1)", 
        "no_bias": "True", 
        "num_filter": "128", 
        "pad": "(3, 0)", 
        "stride": "(1, 1)"
      }, 
      "inputs": []
    }, 
    {
      "op": "Convolution", 
      "name": "mixed_4_tower_1_conv_3_conv2d", 
      "attr": {
        "kernel": "(7, 1)", 
        "no_bias": "True", 
        "num_filter": "128", 
        "pad": "(3, 0)", 
        "stride": "(1, 1)"
      }, 
      "inputs": [[307, 0, 0], [308, 0, 0]]
    }, 
    {
      "op": "null", 
      "name": "mixed_4_tower_1_conv_3_batchnorm_gamma", 
      "attr": {"fix_gamma": "True"}, 
      "inputs": []
    }, 
    {
      "op": "null", 
      "name": "mixed_4_tower_1_conv_3_batchnorm_beta", 
      "attr": {"fix_gamma": "True"}, 
      "inputs": []
    }, 
    {
      "op": "null", 
      "name": "mixed_4_tower_1_conv_3_batchnorm_moving_mean", 
      "attr": {
        "__init__": "[\"zero\", {}]", 
        "fix_gamma": "True"
      }, 
      "inputs": []
    }, 
    {
      "op": "null", 
      "name": "mixed_4_tower_1_conv_3_batchnorm_moving_var", 
      "attr": {
        "__init__": "[\"one\", {}]", 
        "fix_gamma": "True"
      }, 
      "inputs": []
    }, 
    {
      "op": "BatchNorm", 
      "name": "mixed_4_tower_1_conv_3_batchnorm", 
      "attr": {"fix_gamma": "True"}, 
      "inputs": [[309, 0, 0], [310, 0, 0], [311, 0, 0], [312, 0, 1], [313, 0, 1]]
    }, 
    {
      "op": "Activation", 
      "name": "mixed_4_tower_1_conv_3_relu", 
      "attr": {"act_type": "relu"}, 
      "inputs": [[314, 0, 0]]
    }, 
    {
      "op": "null", 
      "name": "mixed_4_tower_1_conv_4_conv2d_weight", 
      "attr": {
        "kernel": "(1, 7)", 
        "no_bias": "True", 
        "num_filter": "192", 
        "pad": "(0, 3)", 
        "stride": "(1, 1)"
      }, 
      "inputs": []
    }, 
    {
      "op": "Convolution", 
      "name": "mixed_4_tower_1_conv_4_conv2d", 
      "attr": {
        "kernel": "(1, 7)", 
        "no_bias": "True", 
        "num_filter": "192", 
        "pad": "(0, 3)", 
        "stride": "(1, 1)"
      }, 
      "inputs": [[315, 0, 0], [316, 0, 0]]
    }, 
    {
      "op": "null", 
      "name": "mixed_4_tower_1_conv_4_batchnorm_gamma", 
      "attr": {"fix_gamma": "True"}, 
      "inputs": []
    }, 
    {
      "op": "null", 
      "name": "mixed_4_tower_1_conv_4_batchnorm_beta", 
      "attr": {"fix_gamma": "True"}, 
      "inputs": []
    }, 
    {
      "op": "null", 
      "name": "mixed_4_tower_1_conv_4_batchnorm_moving_mean", 
      "attr": {
        "__init__": "[\"zero\", {}]", 
        "fix_gamma": "True"
      }, 
      "inputs": []
    }, 
    {
      "op": "null", 
      "name": "mixed_4_tower_1_conv_4_batchnorm_moving_var", 
      "attr": {
        "__init__": "[\"one\", {}]", 
        "fix_gamma": "True"
      }, 
      "inputs": []
    }, 
    {
      "op": "BatchNorm", 
      "name": "mixed_4_tower_1_conv_4_batchnorm", 
      "attr": {"fix_gamma": "True"}, 
      "inputs": [[317, 0, 0], [318, 0, 0], [319, 0, 0], [320, 0, 1], [321, 0, 1]]
    }, 
    {
      "op": "Activation", 
      "name": "mixed_4_tower_1_conv_4_relu", 
      "attr": {"act_type": "relu"}, 
      "inputs": [[322, 0, 0]]
    }, 
    {
      "op": "Pooling", 
      "name": "avg_pool_mixed_4_pool", 
      "attr": {
        "kernel": "(3, 3)", 
        "pad": "(1, 1)", 
        "pool_type": "avg", 
        "stride": "(1, 1)"
      }, 
      "inputs": [[251, 0, 0]]
    }, 
    {
      "op": "null", 
      "name": "mixed_4_tower_2_conv_conv2d_weight", 
      "attr": {
        "kernel": "(1, 1)", 
        "no_bias": "True", 
        "num_filter": "192", 
        "pad": "(0, 0)", 
        "stride": "(1, 1)"
      }, 
      "inputs": []
    }, 
    {
      "op": "Convolution", 
      "name": "mixed_4_tower_2_conv_conv2d", 
      "attr": {
        "kernel": "(1, 1)", 
        "no_bias": "True", 
        "num_filter": "192", 
        "pad": "(0, 0)", 
        "stride": "(1, 1)"
      }, 
      "inputs": [[324, 0, 0], [325, 0, 0]]
    }, 
    {
      "op": "null", 
      "name": "mixed_4_tower_2_conv_batchnorm_gamma", 
      "attr": {"fix_gamma": "True"}, 
      "inputs": []
    }, 
    {
      "op": "null", 
      "name": "mixed_4_tower_2_conv_batchnorm_beta", 
      "attr": {"fix_gamma": "True"}, 
      "inputs": []
    }, 
    {
      "op": "null", 
      "name": "mixed_4_tower_2_conv_batchnorm_moving_mean", 
      "attr": {
        "__init__": "[\"zero\", {}]", 
        "fix_gamma": "True"
      }, 
      "inputs": []
    }, 
    {
      "op": "null", 
      "name": "mixed_4_tower_2_conv_batchnorm_moving_var", 
      "attr": {
        "__init__": "[\"one\", {}]", 
        "fix_gamma": "True"
      }, 
      "inputs": []
    }, 
    {
      "op": "BatchNorm", 
      "name": "mixed_4_tower_2_conv_batchnorm", 
      "attr": {"fix_gamma": "True"}, 
      "inputs": [[326, 0, 0], [327, 0, 0], [328, 0, 0], [329, 0, 1], [330, 0, 1]]
    }, 
    {
      "op": "Activation", 
      "name": "mixed_4_tower_2_conv_relu", 
      "attr": {"act_type": "relu"}, 
      "inputs": [[331, 0, 0]]
    }, 
    {
      "op": "Concat", 
      "name": "ch_concat_mixed_4_chconcat", 
      "attr": {"num_args": "4"}, 
      "inputs": [[259, 0, 0], [283, 0, 0], [323, 0, 0], [332, 0, 0]]
    }, 
    {
      "op": "null", 
      "name": "mixed_5_conv_conv2d_weight", 
      "attr": {
        "kernel": "(1, 1)", 
        "no_bias": "True", 
        "num_filter": "192", 
        "pad": "(0, 0)", 
        "stride": "(1, 1)"
      }, 
      "inputs": []
    }, 
    {
      "op": "Convolution", 
      "name": "mixed_5_conv_conv2d", 
      "attr": {
        "kernel": "(1, 1)", 
        "no_bias": "True", 
        "num_filter": "192", 
        "pad": "(0, 0)", 
        "stride": "(1, 1)"
      }, 
      "inputs": [[333, 0, 0], [334, 0, 0]]
    }, 
    {
      "op": "null", 
      "name": "mixed_5_conv_batchnorm_gamma", 
      "attr": {"fix_gamma": "True"}, 
      "inputs": []
    }, 
    {
      "op": "null", 
      "name": "mixed_5_conv_batchnorm_beta", 
      "attr": {"fix_gamma": "True"}, 
      "inputs": []
    }, 
    {
      "op": "null", 
      "name": "mixed_5_conv_batchnorm_moving_mean", 
      "attr": {
        "__init__": "[\"zero\", {}]", 
        "fix_gamma": "True"
      }, 
      "inputs": []
    }, 
    {
      "op": "null", 
      "name": "mixed_5_conv_batchnorm_moving_var", 
      "attr": {
        "__init__": "[\"one\", {}]", 
        "fix_gamma": "True"
      }, 
      "inputs": []
    }, 
    {
      "op": "BatchNorm", 
      "name": "mixed_5_conv_batchnorm", 
      "attr": {"fix_gamma": "True"}, 
      "inputs": [[335, 0, 0], [336, 0, 0], [337, 0, 0], [338, 0, 1], [339, 0, 1]]
    }, 
    {
      "op": "Activation", 
      "name": "mixed_5_conv_relu", 
      "attr": {"act_type": "relu"}, 
      "inputs": [[340, 0, 0]]
    }, 
    {
      "op": "null", 
      "name": "mixed_5_tower_conv_conv2d_weight", 
      "attr": {
        "kernel": "(1, 1)", 
        "no_bias": "True", 
        "num_filter": "160", 
        "pad": "(0, 0)", 
        "stride": "(1, 1)"
      }, 
      "inputs": []
    }, 
    {
      "op": "Convolution", 
      "name": "mixed_5_tower_conv_conv2d", 
      "attr": {
        "kernel": "(1, 1)", 
        "no_bias": "True", 
        "num_filter": "160", 
        "pad": "(0, 0)", 
        "stride": "(1, 1)"
      }, 
      "inputs": [[333, 0, 0], [342, 0, 0]]
    }, 
    {
      "op": "null", 
      "name": "mixed_5_tower_conv_batchnorm_gamma", 
      "attr": {"fix_gamma": "True"}, 
      "inputs": []
    }, 
    {
      "op": "null", 
      "name": "mixed_5_tower_conv_batchnorm_beta", 
      "attr": {"fix_gamma": "True"}, 
      "inputs": []
    }, 
    {
      "op": "null", 
      "name": "mixed_5_tower_conv_batchnorm_moving_mean", 
      "attr": {
        "__init__": "[\"zero\", {}]", 
        "fix_gamma": "True"
      }, 
      "inputs": []
    }, 
    {
      "op": "null", 
      "name": "mixed_5_tower_conv_batchnorm_moving_var", 
      "attr": {
        "__init__": "[\"one\", {}]", 
        "fix_gamma": "True"
      }, 
      "inputs": []
    }, 
    {
      "op": "BatchNorm", 
      "name": "mixed_5_tower_conv_batchnorm", 
      "attr": {"fix_gamma": "True"}, 
      "inputs": [[343, 0, 0], [344, 0, 0], [345, 0, 0], [346, 0, 1], [347, 0, 1]]
    }, 
    {
      "op": "Activation", 
      "name": "mixed_5_tower_conv_relu", 
      "attr": {"act_type": "relu"}, 
      "inputs": [[348, 0, 0]]
    }, 
    {
      "op": "null", 
      "name": "mixed_5_tower_conv_1_conv2d_weight", 
      "attr": {
        "kernel": "(1, 7)", 
        "no_bias": "True", 
        "num_filter": "160", 
        "pad": "(0, 3)", 
        "stride": "(1, 1)"
      }, 
      "inputs": []
    }, 
    {
      "op": "Convolution", 
      "name": "mixed_5_tower_conv_1_conv2d", 
      "attr": {
        "kernel": "(1, 7)", 
        "no_bias": "True", 
        "num_filter": "160", 
        "pad": "(0, 3)", 
        "stride": "(1, 1)"
      }, 
      "inputs": [[349, 0, 0], [350, 0, 0]]
    }, 
    {
      "op": "null", 
      "name": "mixed_5_tower_conv_1_batchnorm_gamma", 
      "attr": {"fix_gamma": "True"}, 
      "inputs": []
    }, 
    {
      "op": "null", 
      "name": "mixed_5_tower_conv_1_batchnorm_beta", 
      "attr": {"fix_gamma": "True"}, 
      "inputs": []
    }, 
    {
      "op": "null", 
      "name": "mixed_5_tower_conv_1_batchnorm_moving_mean", 
      "attr": {
        "__init__": "[\"zero\", {}]", 
        "fix_gamma": "True"
      }, 
      "inputs": []
    }, 
    {
      "op": "null", 
      "name": "mixed_5_tower_conv_1_batchnorm_moving_var", 
      "attr": {
        "__init__": "[\"one\", {}]", 
        "fix_gamma": "True"
      }, 
      "inputs": []
    }, 
    {
      "op": "BatchNorm", 
      "name": "mixed_5_tower_conv_1_batchnorm", 
      "attr": {"fix_gamma": "True"}, 
      "inputs": [[351, 0, 0], [352, 0, 0], [353, 0, 0], [354, 0, 1], [355, 0, 1]]
    }, 
    {
      "op": "Activation", 
      "name": "mixed_5_tower_conv_1_relu", 
      "attr": {"act_type": "relu"}, 
      "inputs": [[356, 0, 0]]
    }, 
    {
      "op": "null", 
      "name": "mixed_5_tower_conv_2_conv2d_weight", 
      "attr": {
        "kernel": "(7, 1)", 
        "no_bias": "True", 
        "num_filter": "192", 
        "pad": "(3, 0)", 
        "stride": "(1, 1)"
      }, 
      "inputs": []
    }, 
    {
      "op": "Convolution", 
      "name": "mixed_5_tower_conv_2_conv2d", 
      "attr": {
        "kernel": "(7, 1)", 
        "no_bias": "True", 
        "num_filter": "192", 
        "pad": "(3, 0)", 
        "stride": "(1, 1)"
      }, 
      "inputs": [[357, 0, 0], [358, 0, 0]]
    }, 
    {
      "op": "null", 
      "name": "mixed_5_tower_conv_2_batchnorm_gamma", 
      "attr": {"fix_gamma": "True"}, 
      "inputs": []
    }, 
    {
      "op": "null", 
      "name": "mixed_5_tower_conv_2_batchnorm_beta", 
      "attr": {"fix_gamma": "True"}, 
      "inputs": []
    }, 
    {
      "op": "null", 
      "name": "mixed_5_tower_conv_2_batchnorm_moving_mean", 
      "attr": {
        "__init__": "[\"zero\", {}]", 
        "fix_gamma": "True"
      }, 
      "inputs": []
    }, 
    {
      "op": "null", 
      "name": "mixed_5_tower_conv_2_batchnorm_moving_var", 
      "attr": {
        "__init__": "[\"one\", {}]", 
        "fix_gamma": "True"
      }, 
      "inputs": []
    }, 
    {
      "op": "BatchNorm", 
      "name": "mixed_5_tower_conv_2_batchnorm", 
      "attr": {"fix_gamma": "True"}, 
      "inputs": [[359, 0, 0], [360, 0, 0], [361, 0, 0], [362, 0, 1], [363, 0, 1]]
    }, 
    {
      "op": "Activation", 
      "name": "mixed_5_tower_conv_2_relu", 
      "attr": {"act_type": "relu"}, 
      "inputs": [[364, 0, 0]]
    }, 
    {
      "op": "null", 
      "name": "mixed_5_tower_1_conv_conv2d_weight", 
      "attr": {
        "kernel": "(1, 1)", 
        "no_bias": "True", 
        "num_filter": "160", 
        "pad": "(0, 0)", 
        "stride": "(1, 1)"
      }, 
      "inputs": []
    }, 
    {
      "op": "Convolution", 
      "name": "mixed_5_tower_1_conv_conv2d", 
      "attr": {
        "kernel": "(1, 1)", 
        "no_bias": "True", 
        "num_filter": "160", 
        "pad": "(0, 0)", 
        "stride": "(1, 1)"
      }, 
      "inputs": [[333, 0, 0], [366, 0, 0]]
    }, 
    {
      "op": "null", 
      "name": "mixed_5_tower_1_conv_batchnorm_gamma", 
      "attr": {"fix_gamma": "True"}, 
      "inputs": []
    }, 
    {
      "op": "null", 
      "name": "mixed_5_tower_1_conv_batchnorm_beta", 
      "attr": {"fix_gamma": "True"}, 
      "inputs": []
    }, 
    {
      "op": "null", 
      "name": "mixed_5_tower_1_conv_batchnorm_moving_mean", 
      "attr": {
        "__init__": "[\"zero\", {}]", 
        "fix_gamma": "True"
      }, 
      "inputs": []
    }, 
    {
      "op": "null", 
      "name": "mixed_5_tower_1_conv_batchnorm_moving_var", 
      "attr": {
        "__init__": "[\"one\", {}]", 
        "fix_gamma": "True"
      }, 
      "inputs": []
    }, 
    {
      "op": "BatchNorm", 
      "name": "mixed_5_tower_1_conv_batchnorm", 
      "attr": {"fix_gamma": "True"}, 
      "inputs": [[367, 0, 0], [368, 0, 0], [369, 0, 0], [370, 0, 1], [371, 0, 1]]
    }, 
    {
      "op": "Activation", 
      "name": "mixed_5_tower_1_conv_relu", 
      "attr": {"act_type": "relu"}, 
      "inputs": [[372, 0, 0]]
    }, 
    {
      "op": "null", 
      "name": "mixed_5_tower_1_conv_1_conv2d_weight", 
      "attr": {
        "kernel": "(7, 1)", 
        "no_bias": "True", 
        "num_filter": "160", 
        "pad": "(3, 0)", 
        "stride": "(1, 1)"
      }, 
      "inputs": []
    }, 
    {
      "op": "Convolution", 
      "name": "mixed_5_tower_1_conv_1_conv2d", 
      "attr": {
        "kernel": "(7, 1)", 
        "no_bias": "True", 
        "num_filter": "160", 
        "pad": "(3, 0)", 
        "stride": "(1, 1)"
      }, 
      "inputs": [[373, 0, 0], [374, 0, 0]]
    }, 
    {
      "op": "null", 
      "name": "mixed_5_tower_1_conv_1_batchnorm_gamma", 
      "attr": {"fix_gamma": "True"}, 
      "inputs": []
    }, 
    {
      "op": "null", 
      "name": "mixed_5_tower_1_conv_1_batchnorm_beta", 
      "attr": {"fix_gamma": "True"}, 
      "inputs": []
    }, 
    {
      "op": "null", 
      "name": "mixed_5_tower_1_conv_1_batchnorm_moving_mean", 
      "attr": {
        "__init__": "[\"zero\", {}]", 
        "fix_gamma": "True"
      }, 
      "inputs": []
    }, 
    {
      "op": "null", 
      "name": "mixed_5_tower_1_conv_1_batchnorm_moving_var", 
      "attr": {
        "__init__": "[\"one\", {}]", 
        "fix_gamma": "True"
      }, 
      "inputs": []
    }, 
    {
      "op": "BatchNorm", 
      "name": "mixed_5_tower_1_conv_1_batchnorm", 
      "attr": {"fix_gamma": "True"}, 
      "inputs": [[375, 0, 0], [376, 0, 0], [377, 0, 0], [378, 0, 1], [379, 0, 1]]
    }, 
    {
      "op": "Activation", 
      "name": "mixed_5_tower_1_conv_1_relu", 
      "attr": {"act_type": "relu"}, 
      "inputs": [[380, 0, 0]]
    }, 
    {
      "op": "null", 
      "name": "mixed_5_tower_1_conv_2_conv2d_weight", 
      "attr": {
        "kernel": "(1, 7)", 
        "no_bias": "True", 
        "num_filter": "160", 
        "pad": "(0, 3)", 
        "stride": "(1, 1)"
      }, 
      "inputs": []
    }, 
    {
      "op": "Convolution", 
      "name": "mixed_5_tower_1_conv_2_conv2d", 
      "attr": {
        "kernel": "(1, 7)", 
        "no_bias": "True", 
        "num_filter": "160", 
        "pad": "(0, 3)", 
        "stride": "(1, 1)"
      }, 
      "inputs": [[381, 0, 0], [382, 0, 0]]
    }, 
    {
      "op": "null", 
      "name": "mixed_5_tower_1_conv_2_batchnorm_gamma", 
      "attr": {"fix_gamma": "True"}, 
      "inputs": []
    }, 
    {
      "op": "null", 
      "name": "mixed_5_tower_1_conv_2_batchnorm_beta", 
      "attr": {"fix_gamma": "True"}, 
      "inputs": []
    }, 
    {
      "op": "null", 
      "name": "mixed_5_tower_1_conv_2_batchnorm_moving_mean", 
      "attr": {
        "__init__": "[\"zero\", {}]", 
        "fix_gamma": "True"
      }, 
      "inputs": []
    }, 
    {
      "op": "null", 
      "name": "mixed_5_tower_1_conv_2_batchnorm_moving_var", 
      "attr": {
        "__init__": "[\"one\", {}]", 
        "fix_gamma": "True"
      }, 
      "inputs": []
    }, 
    {
      "op": "BatchNorm", 
      "name": "mixed_5_tower_1_conv_2_batchnorm", 
      "attr": {"fix_gamma": "True"}, 
      "inputs": [[383, 0, 0], [384, 0, 0], [385, 0, 0], [386, 0, 1], [387, 0, 1]]
    }, 
    {
      "op": "Activation", 
      "name": "mixed_5_tower_1_conv_2_relu", 
      "attr": {"act_type": "relu"}, 
      "inputs": [[388, 0, 0]]
    }, 
    {
      "op": "null", 
      "name": "mixed_5_tower_1_conv_3_conv2d_weight", 
      "attr": {
        "kernel": "(7, 1)", 
        "no_bias": "True", 
        "num_filter": "160", 
        "pad": "(3, 0)", 
        "stride": "(1, 1)"
      }, 
      "inputs": []
    }, 
    {
      "op": "Convolution", 
      "name": "mixed_5_tower_1_conv_3_conv2d", 
      "attr": {
        "kernel": "(7, 1)", 
        "no_bias": "True", 
        "num_filter": "160", 
        "pad": "(3, 0)", 
        "stride": "(1, 1)"
      }, 
      "inputs": [[389, 0, 0], [390, 0, 0]]
    }, 
    {
      "op": "null", 
      "name": "mixed_5_tower_1_conv_3_batchnorm_gamma", 
      "attr": {"fix_gamma": "True"}, 
      "inputs": []
    }, 
    {
      "op": "null", 
      "name": "mixed_5_tower_1_conv_3_batchnorm_beta", 
      "attr": {"fix_gamma": "True"}, 
      "inputs": []
    }, 
    {
      "op": "null", 
      "name": "mixed_5_tower_1_conv_3_batchnorm_moving_mean", 
      "attr": {
        "__init__": "[\"zero\", {}]", 
        "fix_gamma": "True"
      }, 
      "inputs": []
    }, 
    {
      "op": "null", 
      "name": "mixed_5_tower_1_conv_3_batchnorm_moving_var", 
      "attr": {
        "__init__": "[\"one\", {}]", 
        "fix_gamma": "True"
      }, 
      "inputs": []
    }, 
    {
      "op": "BatchNorm", 
      "name": "mixed_5_tower_1_conv_3_batchnorm", 
      "attr": {"fix_gamma": "True"}, 
      "inputs": [[391, 0, 0], [392, 0, 0], [393, 0, 0], [394, 0, 1], [395, 0, 1]]
    }, 
    {
      "op": "Activation", 
      "name": "mixed_5_tower_1_conv_3_relu", 
      "attr": {"act_type": "relu"}, 
      "inputs": [[396, 0, 0]]
    }, 
    {
      "op": "null", 
      "name": "mixed_5_tower_1_conv_4_conv2d_weight", 
      "attr": {
        "kernel": "(1, 7)", 
        "no_bias": "True", 
        "num_filter": "192", 
        "pad": "(0, 3)", 
        "stride": "(1, 1)"
      }, 
      "inputs": []
    }, 
    {
      "op": "Convolution", 
      "name": "mixed_5_tower_1_conv_4_conv2d", 
      "attr": {
        "kernel": "(1, 7)", 
        "no_bias": "True", 
        "num_filter": "192", 
        "pad": "(0, 3)", 
        "stride": "(1, 1)"
      }, 
      "inputs": [[397, 0, 0], [398, 0, 0]]
    }, 
    {
      "op": "null", 
      "name": "mixed_5_tower_1_conv_4_batchnorm_gamma", 
      "attr": {"fix_gamma": "True"}, 
      "inputs": []
    }, 
    {
      "op": "null", 
      "name": "mixed_5_tower_1_conv_4_batchnorm_beta", 
      "attr": {"fix_gamma": "True"}, 
      "inputs": []
    }, 
    {
      "op": "null", 
      "name": "mixed_5_tower_1_conv_4_batchnorm_moving_mean", 
      "attr": {
        "__init__": "[\"zero\", {}]", 
        "fix_gamma": "True"
      }, 
      "inputs": []
    }, 
    {
      "op": "null", 
      "name": "mixed_5_tower_1_conv_4_batchnorm_moving_var", 
      "attr": {
        "__init__": "[\"one\", {}]", 
        "fix_gamma": "True"
      }, 
      "inputs": []
    }, 
    {
      "op": "BatchNorm", 
      "name": "mixed_5_tower_1_conv_4_batchnorm", 
      "attr": {"fix_gamma": "True"}, 
      "inputs": [[399, 0, 0], [400, 0, 0], [401, 0, 0], [402, 0, 1], [403, 0, 1]]
    }, 
    {
      "op": "Activation", 
      "name": "mixed_5_tower_1_conv_4_relu", 
      "attr": {"act_type": "relu"}, 
      "inputs": [[404, 0, 0]]
    }, 
    {
      "op": "Pooling", 
      "name": "avg_pool_mixed_5_pool", 
      "attr": {
        "kernel": "(3, 3)", 
        "pad": "(1, 1)", 
        "pool_type": "avg", 
        "stride": "(1, 1)"
      }, 
      "inputs": [[333, 0, 0]]
    }, 
    {
      "op": "null", 
      "name": "mixed_5_tower_2_conv_conv2d_weight", 
      "attr": {
        "kernel": "(1, 1)", 
        "no_bias": "True", 
        "num_filter": "192", 
        "pad": "(0, 0)", 
        "stride": "(1, 1)"
      }, 
      "inputs": []
    }, 
    {
      "op": "Convolution", 
      "name": "mixed_5_tower_2_conv_conv2d", 
      "attr": {
        "kernel": "(1, 1)", 
        "no_bias": "True", 
        "num_filter": "192", 
        "pad": "(0, 0)", 
        "stride": "(1, 1)"
      }, 
      "inputs": [[406, 0, 0], [407, 0, 0]]
    }, 
    {
      "op": "null", 
      "name": "mixed_5_tower_2_conv_batchnorm_gamma", 
      "attr": {"fix_gamma": "True"}, 
      "inputs": []
    }, 
    {
      "op": "null", 
      "name": "mixed_5_tower_2_conv_batchnorm_beta", 
      "attr": {"fix_gamma": "True"}, 
      "inputs": []
    }, 
    {
      "op": "null", 
      "name": "mixed_5_tower_2_conv_batchnorm_moving_mean", 
      "attr": {
        "__init__": "[\"zero\", {}]", 
        "fix_gamma": "True"
      }, 
      "inputs": []
    }, 
    {
      "op": "null", 
      "name": "mixed_5_tower_2_conv_batchnorm_moving_var", 
      "attr": {
        "__init__": "[\"one\", {}]", 
        "fix_gamma": "True"
      }, 
      "inputs": []
    }, 
    {
      "op": "BatchNorm", 
      "name": "mixed_5_tower_2_conv_batchnorm", 
      "attr": {"fix_gamma": "True"}, 
      "inputs": [[408, 0, 0], [409, 0, 0], [410, 0, 0], [411, 0, 1], [412, 0, 1]]
    }, 
    {
      "op": "Activation", 
      "name": "mixed_5_tower_2_conv_relu", 
      "attr": {"act_type": "relu"}, 
      "inputs": [[413, 0, 0]]
    }, 
    {
      "op": "Concat", 
      "name": "ch_concat_mixed_5_chconcat", 
      "attr": {"num_args": "4"}, 
      "inputs": [[341, 0, 0], [365, 0, 0], [405, 0, 0], [414, 0, 0]]
    }, 
    {
      "op": "null", 
      "name": "mixed_6_conv_conv2d_weight", 
      "attr": {
        "kernel": "(1, 1)", 
        "no_bias": "True", 
        "num_filter": "192", 
        "pad": "(0, 0)", 
        "stride": "(1, 1)"
      }, 
      "inputs": []
    }, 
    {
      "op": "Convolution", 
      "name": "mixed_6_conv_conv2d", 
      "attr": {
        "kernel": "(1, 1)", 
        "no_bias": "True", 
        "num_filter": "192", 
        "pad": "(0, 0)", 
        "stride": "(1, 1)"
      }, 
      "inputs": [[415, 0, 0], [416, 0, 0]]
    }, 
    {
      "op": "null", 
      "name": "mixed_6_conv_batchnorm_gamma", 
      "attr": {"fix_gamma": "True"}, 
      "inputs": []
    }, 
    {
      "op": "null", 
      "name": "mixed_6_conv_batchnorm_beta", 
      "attr": {"fix_gamma": "True"}, 
      "inputs": []
    }, 
    {
      "op": "null", 
      "name": "mixed_6_conv_batchnorm_moving_mean", 
      "attr": {
        "__init__": "[\"zero\", {}]", 
        "fix_gamma": "True"
      }, 
      "inputs": []
    }, 
    {
      "op": "null", 
      "name": "mixed_6_conv_batchnorm_moving_var", 
      "attr": {
        "__init__": "[\"one\", {}]", 
        "fix_gamma": "True"
      }, 
      "inputs": []
    }, 
    {
      "op": "BatchNorm", 
      "name": "mixed_6_conv_batchnorm", 
      "attr": {"fix_gamma": "True"}, 
      "inputs": [[417, 0, 0], [418, 0, 0], [419, 0, 0], [420, 0, 1], [421, 0, 1]]
    }, 
    {
      "op": "Activation", 
      "name": "mixed_6_conv_relu", 
      "attr": {"act_type": "relu"}, 
      "inputs": [[422, 0, 0]]
    }, 
    {
      "op": "null", 
      "name": "mixed_6_tower_conv_conv2d_weight", 
      "attr": {
        "kernel": "(1, 1)", 
        "no_bias": "True", 
        "num_filter": "160", 
        "pad": "(0, 0)", 
        "stride": "(1, 1)"
      }, 
      "inputs": []
    }, 
    {
      "op": "Convolution", 
      "name": "mixed_6_tower_conv_conv2d", 
      "attr": {
        "kernel": "(1, 1)", 
        "no_bias": "True", 
        "num_filter": "160", 
        "pad": "(0, 0)", 
        "stride": "(1, 1)"
      }, 
      "inputs": [[415, 0, 0], [424, 0, 0]]
    }, 
    {
      "op": "null", 
      "name": "mixed_6_tower_conv_batchnorm_gamma", 
      "attr": {"fix_gamma": "True"}, 
      "inputs": []
    }, 
    {
      "op": "null", 
      "name": "mixed_6_tower_conv_batchnorm_beta", 
      "attr": {"fix_gamma": "True"}, 
      "inputs": []
    }, 
    {
      "op": "null", 
      "name": "mixed_6_tower_conv_batchnorm_moving_mean", 
      "attr": {
        "__init__": "[\"zero\", {}]", 
        "fix_gamma": "True"
      }, 
      "inputs": []
    }, 
    {
      "op": "null", 
      "name": "mixed_6_tower_conv_batchnorm_moving_var", 
      "attr": {
        "__init__": "[\"one\", {}]", 
        "fix_gamma": "True"
      }, 
      "inputs": []
    }, 
    {
      "op": "BatchNorm", 
      "name": "mixed_6_tower_conv_batchnorm", 
      "attr": {"fix_gamma": "True"}, 
      "inputs": [[425, 0, 0], [426, 0, 0], [427, 0, 0], [428, 0, 1], [429, 0, 1]]
    }, 
    {
      "op": "Activation", 
      "name": "mixed_6_tower_conv_relu", 
      "attr": {"act_type": "relu"}, 
      "inputs": [[430, 0, 0]]
    }, 
    {
      "op": "null", 
      "name": "mixed_6_tower_conv_1_conv2d_weight", 
      "attr": {
        "kernel": "(1, 7)", 
        "no_bias": "True", 
        "num_filter": "160", 
        "pad": "(0, 3)", 
        "stride": "(1, 1)"
      }, 
      "inputs": []
    }, 
    {
      "op": "Convolution", 
      "name": "mixed_6_tower_conv_1_conv2d", 
      "attr": {
        "kernel": "(1, 7)", 
        "no_bias": "True", 
        "num_filter": "160", 
        "pad": "(0, 3)", 
        "stride": "(1, 1)"
      }, 
      "inputs": [[431, 0, 0], [432, 0, 0]]
    }, 
    {
      "op": "null", 
      "name": "mixed_6_tower_conv_1_batchnorm_gamma", 
      "attr": {"fix_gamma": "True"}, 
      "inputs": []
    }, 
    {
      "op": "null", 
      "name": "mixed_6_tower_conv_1_batchnorm_beta", 
      "attr": {"fix_gamma": "True"}, 
      "inputs": []
    }, 
    {
      "op": "null", 
      "name": "mixed_6_tower_conv_1_batchnorm_moving_mean", 
      "attr": {
        "__init__": "[\"zero\", {}]", 
        "fix_gamma": "True"
      }, 
      "inputs": []
    }, 
    {
      "op": "null", 
      "name": "mixed_6_tower_conv_1_batchnorm_moving_var", 
      "attr": {
        "__init__": "[\"one\", {}]", 
        "fix_gamma": "True"
      }, 
      "inputs": []
    }, 
    {
      "op": "BatchNorm", 
      "name": "mixed_6_tower_conv_1_batchnorm", 
      "attr": {"fix_gamma": "True"}, 
      "inputs": [[433, 0, 0], [434, 0, 0], [435, 0, 0], [436, 0, 1], [437, 0, 1]]
    }, 
    {
      "op": "Activation", 
      "name": "mixed_6_tower_conv_1_relu", 
      "attr": {"act_type": "relu"}, 
      "inputs": [[438, 0, 0]]
    }, 
    {
      "op": "null", 
      "name": "mixed_6_tower_conv_2_conv2d_weight", 
      "attr": {
        "kernel": "(7, 1)", 
        "no_bias": "True", 
        "num_filter": "192", 
        "pad": "(3, 0)", 
        "stride": "(1, 1)"
      }, 
      "inputs": []
    }, 
    {
      "op": "Convolution", 
      "name": "mixed_6_tower_conv_2_conv2d", 
      "attr": {
        "kernel": "(7, 1)", 
        "no_bias": "True", 
        "num_filter": "192", 
        "pad": "(3, 0)", 
        "stride": "(1, 1)"
      }, 
      "inputs": [[439, 0, 0], [440, 0, 0]]
    }, 
    {
      "op": "null", 
      "name": "mixed_6_tower_conv_2_batchnorm_gamma", 
      "attr": {"fix_gamma": "True"}, 
      "inputs": []
    }, 
    {
      "op": "null", 
      "name": "mixed_6_tower_conv_2_batchnorm_beta", 
      "attr": {"fix_gamma": "True"}, 
      "inputs": []
    }, 
    {
      "op": "null", 
      "name": "mixed_6_tower_conv_2_batchnorm_moving_mean", 
      "attr": {
        "__init__": "[\"zero\", {}]", 
        "fix_gamma": "True"
      }, 
      "inputs": []
    }, 
    {
      "op": "null", 
      "name": "mixed_6_tower_conv_2_batchnorm_moving_var", 
      "attr": {
        "__init__": "[\"one\", {}]", 
        "fix_gamma": "True"
      }, 
      "inputs": []
    }, 
    {
      "op": "BatchNorm", 
      "name": "mixed_6_tower_conv_2_batchnorm", 
      "attr": {"fix_gamma": "True"}, 
      "inputs": [[441, 0, 0], [442, 0, 0], [443, 0, 0], [444, 0, 1], [445, 0, 1]]
    }, 
    {
      "op": "Activation", 
      "name": "mixed_6_tower_conv_2_relu", 
      "attr": {"act_type": "relu"}, 
      "inputs": [[446, 0, 0]]
    }, 
    {
      "op": "null", 
      "name": "mixed_6_tower_1_conv_conv2d_weight", 
      "attr": {
        "kernel": "(1, 1)", 
        "no_bias": "True", 
        "num_filter": "160", 
        "pad": "(0, 0)", 
        "stride": "(1, 1)"
      }, 
      "inputs": []
    }, 
    {
      "op": "Convolution", 
      "name": "mixed_6_tower_1_conv_conv2d", 
      "attr": {
        "kernel": "(1, 1)", 
        "no_bias": "True", 
        "num_filter": "160", 
        "pad": "(0, 0)", 
        "stride": "(1, 1)"
      }, 
      "inputs": [[415, 0, 0], [448, 0, 0]]
    }, 
    {
      "op": "null", 
      "name": "mixed_6_tower_1_conv_batchnorm_gamma", 
      "attr": {"fix_gamma": "True"}, 
      "inputs": []
    }, 
    {
      "op": "null", 
      "name": "mixed_6_tower_1_conv_batchnorm_beta", 
      "attr": {"fix_gamma": "True"}, 
      "inputs": []
    }, 
    {
      "op": "null", 
      "name": "mixed_6_tower_1_conv_batchnorm_moving_mean", 
      "attr": {
        "__init__": "[\"zero\", {}]", 
        "fix_gamma": "True"
      }, 
      "inputs": []
    }, 
    {
      "op": "null", 
      "name": "mixed_6_tower_1_conv_batchnorm_moving_var", 
      "attr": {
        "__init__": "[\"one\", {}]", 
        "fix_gamma": "True"
      }, 
      "inputs": []
    }, 
    {
      "op": "BatchNorm", 
      "name": "mixed_6_tower_1_conv_batchnorm", 
      "attr": {"fix_gamma": "True"}, 
      "inputs": [[449, 0, 0], [450, 0, 0], [451, 0, 0], [452, 0, 1], [453, 0, 1]]
    }, 
    {
      "op": "Activation", 
      "name": "mixed_6_tower_1_conv_relu", 
      "attr": {"act_type": "relu"}, 
      "inputs": [[454, 0, 0]]
    }, 
    {
      "op": "null", 
      "name": "mixed_6_tower_1_conv_1_conv2d_weight", 
      "attr": {
        "kernel": "(7, 1)", 
        "no_bias": "True", 
        "num_filter": "160", 
        "pad": "(3, 0)", 
        "stride": "(1, 1)"
      }, 
      "inputs": []
    }, 
    {
      "op": "Convolution", 
      "name": "mixed_6_tower_1_conv_1_conv2d", 
      "attr": {
        "kernel": "(7, 1)", 
        "no_bias": "True", 
        "num_filter": "160", 
        "pad": "(3, 0)", 
        "stride": "(1, 1)"
      }, 
      "inputs": [[455, 0, 0], [456, 0, 0]]
    }, 
    {
      "op": "null", 
      "name": "mixed_6_tower_1_conv_1_batchnorm_gamma", 
      "attr": {"fix_gamma": "True"}, 
      "inputs": []
    }, 
    {
      "op": "null", 
      "name": "mixed_6_tower_1_conv_1_batchnorm_beta", 
      "attr": {"fix_gamma": "True"}, 
      "inputs": []
    }, 
    {
      "op": "null", 
      "name": "mixed_6_tower_1_conv_1_batchnorm_moving_mean", 
      "attr": {
        "__init__": "[\"zero\", {}]", 
        "fix_gamma": "True"
      }, 
      "inputs": []
    }, 
    {
      "op": "null", 
      "name": "mixed_6_tower_1_conv_1_batchnorm_moving_var", 
      "attr": {
        "__init__": "[\"one\", {}]", 
        "fix_gamma": "True"
      }, 
      "inputs": []
    }, 
    {
      "op": "BatchNorm", 
      "name": "mixed_6_tower_1_conv_1_batchnorm", 
      "attr": {"fix_gamma": "True"}, 
      "inputs": [[457, 0, 0], [458, 0, 0], [459, 0, 0], [460, 0, 1], [461, 0, 1]]
    }, 
    {
      "op": "Activation", 
      "name": "mixed_6_tower_1_conv_1_relu", 
      "attr": {"act_type": "relu"}, 
      "inputs": [[462, 0, 0]]
    }, 
    {
      "op": "null", 
      "name": "mixed_6_tower_1_conv_2_conv2d_weight", 
      "attr": {
        "kernel": "(1, 7)", 
        "no_bias": "True", 
        "num_filter": "160", 
        "pad": "(0, 3)", 
        "stride": "(1, 1)"
      }, 
      "inputs": []
    }, 
    {
      "op": "Convolution", 
      "name": "mixed_6_tower_1_conv_2_conv2d", 
      "attr": {
        "kernel": "(1, 7)", 
        "no_bias": "True", 
        "num_filter": "160", 
        "pad": "(0, 3)", 
        "stride": "(1, 1)"
      }, 
      "inputs": [[463, 0, 0], [464, 0, 0]]
    }, 
    {
      "op": "null", 
      "name": "mixed_6_tower_1_conv_2_batchnorm_gamma", 
      "attr": {"fix_gamma": "True"}, 
      "inputs": []
    }, 
    {
      "op": "null", 
      "name": "mixed_6_tower_1_conv_2_batchnorm_beta", 
      "attr": {"fix_gamma": "True"}, 
      "inputs": []
    }, 
    {
      "op": "null", 
      "name": "mixed_6_tower_1_conv_2_batchnorm_moving_mean", 
      "attr": {
        "__init__": "[\"zero\", {}]", 
        "fix_gamma": "True"
      }, 
      "inputs": []
    }, 
    {
      "op": "null", 
      "name": "mixed_6_tower_1_conv_2_batchnorm_moving_var", 
      "attr": {
        "__init__": "[\"one\", {}]", 
        "fix_gamma": "True"
      }, 
      "inputs": []
    }, 
    {
      "op": "BatchNorm", 
      "name": "mixed_6_tower_1_conv_2_batchnorm", 
      "attr": {"fix_gamma": "True"}, 
      "inputs": [[465, 0, 0], [466, 0, 0], [467, 0, 0], [468, 0, 1], [469, 0, 1]]
    }, 
    {
      "op": "Activation", 
      "name": "mixed_6_tower_1_conv_2_relu", 
      "attr": {"act_type": "relu"}, 
      "inputs": [[470, 0, 0]]
    }, 
    {
      "op": "null", 
      "name": "mixed_6_tower_1_conv_3_conv2d_weight", 
      "attr": {
        "kernel": "(7, 1)", 
        "no_bias": "True", 
        "num_filter": "160", 
        "pad": "(3, 0)", 
        "stride": "(1, 1)"
      }, 
      "inputs": []
    }, 
    {
      "op": "Convolution", 
      "name": "mixed_6_tower_1_conv_3_conv2d", 
      "attr": {
        "kernel": "(7, 1)", 
        "no_bias": "True", 
        "num_filter": "160", 
        "pad": "(3, 0)", 
        "stride": "(1, 1)"
      }, 
      "inputs": [[471, 0, 0], [472, 0, 0]]
    }, 
    {
      "op": "null", 
      "name": "mixed_6_tower_1_conv_3_batchnorm_gamma", 
      "attr": {"fix_gamma": "True"}, 
      "inputs": []
    }, 
    {
      "op": "null", 
      "name": "mixed_6_tower_1_conv_3_batchnorm_beta", 
      "attr": {"fix_gamma": "True"}, 
      "inputs": []
    }, 
    {
      "op": "null", 
      "name": "mixed_6_tower_1_conv_3_batchnorm_moving_mean", 
      "attr": {
        "__init__": "[\"zero\", {}]", 
        "fix_gamma": "True"
      }, 
      "inputs": []
    }, 
    {
      "op": "null", 
      "name": "mixed_6_tower_1_conv_3_batchnorm_moving_var", 
      "attr": {
        "__init__": "[\"one\", {}]", 
        "fix_gamma": "True"
      }, 
      "inputs": []
    }, 
    {
      "op": "BatchNorm", 
      "name": "mixed_6_tower_1_conv_3_batchnorm", 
      "attr": {"fix_gamma": "True"}, 
      "inputs": [[473, 0, 0], [474, 0, 0], [475, 0, 0], [476, 0, 1], [477, 0, 1]]
    }, 
    {
      "op": "Activation", 
      "name": "mixed_6_tower_1_conv_3_relu", 
      "attr": {"act_type": "relu"}, 
      "inputs": [[478, 0, 0]]
    }, 
    {
      "op": "null", 
      "name": "mixed_6_tower_1_conv_4_conv2d_weight", 
      "attr": {
        "kernel": "(1, 7)", 
        "no_bias": "True", 
        "num_filter": "192", 
        "pad": "(0, 3)", 
        "stride": "(1, 1)"
      }, 
      "inputs": []
    }, 
    {
      "op": "Convolution", 
      "name": "mixed_6_tower_1_conv_4_conv2d", 
      "attr": {
        "kernel": "(1, 7)", 
        "no_bias": "True", 
        "num_filter": "192", 
        "pad": "(0, 3)", 
        "stride": "(1, 1)"
      }, 
      "inputs": [[479, 0, 0], [480, 0, 0]]
    }, 
    {
      "op": "null", 
      "name": "mixed_6_tower_1_conv_4_batchnorm_gamma", 
      "attr": {"fix_gamma": "True"}, 
      "inputs": []
    }, 
    {
      "op": "null", 
      "name": "mixed_6_tower_1_conv_4_batchnorm_beta", 
      "attr": {"fix_gamma": "True"}, 
      "inputs": []
    }, 
    {
      "op": "null", 
      "name": "mixed_6_tower_1_conv_4_batchnorm_moving_mean", 
      "attr": {
        "__init__": "[\"zero\", {}]", 
        "fix_gamma": "True"
      }, 
      "inputs": []
    }, 
    {
      "op": "null", 
      "name": "mixed_6_tower_1_conv_4_batchnorm_moving_var", 
      "attr": {
        "__init__": "[\"one\", {}]", 
        "fix_gamma": "True"
      }, 
      "inputs": []
    }, 
    {
      "op": "BatchNorm", 
      "name": "mixed_6_tower_1_conv_4_batchnorm", 
      "attr": {"fix_gamma": "True"}, 
      "inputs": [[481, 0, 0], [482, 0, 0], [483, 0, 0], [484, 0, 1], [485, 0, 1]]
    }, 
    {
      "op": "Activation", 
      "name": "mixed_6_tower_1_conv_4_relu", 
      "attr": {"act_type": "relu"}, 
      "inputs": [[486, 0, 0]]
    }, 
    {
      "op": "Pooling", 
      "name": "avg_pool_mixed_6_pool", 
      "attr": {
        "kernel": "(3, 3)", 
        "pad": "(1, 1)", 
        "pool_type": "avg", 
        "stride": "(1, 1)"
      }, 
      "inputs": [[415, 0, 0]]
    }, 
    {
      "op": "null", 
      "name": "mixed_6_tower_2_conv_conv2d_weight", 
      "attr": {
        "kernel": "(1, 1)", 
        "no_bias": "True", 
        "num_filter": "192", 
        "pad": "(0, 0)", 
        "stride": "(1, 1)"
      }, 
      "inputs": []
    }, 
    {
      "op": "Convolution", 
      "name": "mixed_6_tower_2_conv_conv2d", 
      "attr": {
        "kernel": "(1, 1)", 
        "no_bias": "True", 
        "num_filter": "192", 
        "pad": "(0, 0)", 
        "stride": "(1, 1)"
      }, 
      "inputs": [[488, 0, 0], [489, 0, 0]]
    }, 
    {
      "op": "null", 
      "name": "mixed_6_tower_2_conv_batchnorm_gamma", 
      "attr": {"fix_gamma": "True"}, 
      "inputs": []
    }, 
    {
      "op": "null", 
      "name": "mixed_6_tower_2_conv_batchnorm_beta", 
      "attr": {"fix_gamma": "True"}, 
      "inputs": []
    }, 
    {
      "op": "null", 
      "name": "mixed_6_tower_2_conv_batchnorm_moving_mean", 
      "attr": {
        "__init__": "[\"zero\", {}]", 
        "fix_gamma": "True"
      }, 
      "inputs": []
    }, 
    {
      "op": "null", 
      "name": "mixed_6_tower_2_conv_batchnorm_moving_var", 
      "attr": {
        "__init__": "[\"one\", {}]", 
        "fix_gamma": "True"
      }, 
      "inputs": []
    }, 
    {
      "op": "BatchNorm", 
      "name": "mixed_6_tower_2_conv_batchnorm", 
      "attr": {"fix_gamma": "True"}, 
      "inputs": [[490, 0, 0], [491, 0, 0], [492, 0, 0], [493, 0, 1], [494, 0, 1]]
    }, 
    {
      "op": "Activation", 
      "name": "mixed_6_tower_2_conv_relu", 
      "attr": {"act_type": "relu"}, 
      "inputs": [[495, 0, 0]]
    }, 
    {
      "op": "Concat", 
      "name": "ch_concat_mixed_6_chconcat", 
      "attr": {"num_args": "4"}, 
      "inputs": [[423, 0, 0], [447, 0, 0], [487, 0, 0], [496, 0, 0]]
    }, 
    {
      "op": "null", 
      "name": "mixed_7_conv_conv2d_weight", 
      "attr": {
        "kernel": "(1, 1)", 
        "no_bias": "True", 
        "num_filter": "192", 
        "pad": "(0, 0)", 
        "stride": "(1, 1)"
      }, 
      "inputs": []
    }, 
    {
      "op": "Convolution", 
      "name": "mixed_7_conv_conv2d", 
      "attr": {
        "kernel": "(1, 1)", 
        "no_bias": "True", 
        "num_filter": "192", 
        "pad": "(0, 0)", 
        "stride": "(1, 1)"
      }, 
      "inputs": [[497, 0, 0], [498, 0, 0]]
    }, 
    {
      "op": "null", 
      "name": "mixed_7_conv_batchnorm_gamma", 
      "attr": {"fix_gamma": "True"}, 
      "inputs": []
    }, 
    {
      "op": "null", 
      "name": "mixed_7_conv_batchnorm_beta", 
      "attr": {"fix_gamma": "True"}, 
      "inputs": []
    }, 
    {
      "op": "null", 
      "name": "mixed_7_conv_batchnorm_moving_mean", 
      "attr": {
        "__init__": "[\"zero\", {}]", 
        "fix_gamma": "True"
      }, 
      "inputs": []
    }, 
    {
      "op": "null", 
      "name": "mixed_7_conv_batchnorm_moving_var", 
      "attr": {
        "__init__": "[\"one\", {}]", 
        "fix_gamma": "True"
      }, 
      "inputs": []
    }, 
    {
      "op": "BatchNorm", 
      "name": "mixed_7_conv_batchnorm", 
      "attr": {"fix_gamma": "True"}, 
      "inputs": [[499, 0, 0], [500, 0, 0], [501, 0, 0], [502, 0, 1], [503, 0, 1]]
    }, 
    {
      "op": "Activation", 
      "name": "mixed_7_conv_relu", 
      "attr": {"act_type": "relu"}, 
      "inputs": [[504, 0, 0]]
    }, 
    {
      "op": "null", 
      "name": "mixed_7_tower_conv_conv2d_weight", 
      "attr": {
        "kernel": "(1, 1)", 
        "no_bias": "True", 
        "num_filter": "192", 
        "pad": "(0, 0)", 
        "stride": "(1, 1)"
      }, 
      "inputs": []
    }, 
    {
      "op": "Convolution", 
      "name": "mixed_7_tower_conv_conv2d", 
      "attr": {
        "kernel": "(1, 1)", 
        "no_bias": "True", 
        "num_filter": "192", 
        "pad": "(0, 0)", 
        "stride": "(1, 1)"
      }, 
      "inputs": [[497, 0, 0], [506, 0, 0]]
    }, 
    {
      "op": "null", 
      "name": "mixed_7_tower_conv_batchnorm_gamma", 
      "attr": {"fix_gamma": "True"}, 
      "inputs": []
    }, 
    {
      "op": "null", 
      "name": "mixed_7_tower_conv_batchnorm_beta", 
      "attr": {"fix_gamma": "True"}, 
      "inputs": []
    }, 
    {
      "op": "null", 
      "name": "mixed_7_tower_conv_batchnorm_moving_mean", 
      "attr": {
        "__init__": "[\"zero\", {}]", 
        "fix_gamma": "True"
      }, 
      "inputs": []
    }, 
    {
      "op": "null", 
      "name": "mixed_7_tower_conv_batchnorm_moving_var", 
      "attr": {
        "__init__": "[\"one\", {}]", 
        "fix_gamma": "True"
      }, 
      "inputs": []
    }, 
    {
      "op": "BatchNorm", 
      "name": "mixed_7_tower_conv_batchnorm", 
      "attr": {"fix_gamma": "True"}, 
      "inputs": [[507, 0, 0], [508, 0, 0], [509, 0, 0], [510, 0, 1], [511, 0, 1]]
    }, 
    {
      "op": "Activation", 
      "name": "mixed_7_tower_conv_relu", 
      "attr": {"act_type": "relu"}, 
      "inputs": [[512, 0, 0]]
    }, 
    {
      "op": "null", 
      "name": "mixed_7_tower_conv_1_conv2d_weight", 
      "attr": {
        "kernel": "(1, 7)", 
        "no_bias": "True", 
        "num_filter": "192", 
        "pad": "(0, 3)", 
        "stride": "(1, 1)"
      }, 
      "inputs": []
    }, 
    {
      "op": "Convolution", 
      "name": "mixed_7_tower_conv_1_conv2d", 
      "attr": {
        "kernel": "(1, 7)", 
        "no_bias": "True", 
        "num_filter": "192", 
        "pad": "(0, 3)", 
        "stride": "(1, 1)"
      }, 
      "inputs": [[513, 0, 0], [514, 0, 0]]
    }, 
    {
      "op": "null", 
      "name": "mixed_7_tower_conv_1_batchnorm_gamma", 
      "attr": {"fix_gamma": "True"}, 
      "inputs": []
    }, 
    {
      "op": "null", 
      "name": "mixed_7_tower_conv_1_batchnorm_beta", 
      "attr": {"fix_gamma": "True"}, 
      "inputs": []
    }, 
    {
      "op": "null", 
      "name": "mixed_7_tower_conv_1_batchnorm_moving_mean", 
      "attr": {
        "__init__": "[\"zero\", {}]", 
        "fix_gamma": "True"
      }, 
      "inputs": []
    }, 
    {
      "op": "null", 
      "name": "mixed_7_tower_conv_1_batchnorm_moving_var", 
      "attr": {
        "__init__": "[\"one\", {}]", 
        "fix_gamma": "True"
      }, 
      "inputs": []
    }, 
    {
      "op": "BatchNorm", 
      "name": "mixed_7_tower_conv_1_batchnorm", 
      "attr": {"fix_gamma": "True"}, 
      "inputs": [[515, 0, 0], [516, 0, 0], [517, 0, 0], [518, 0, 1], [519, 0, 1]]
    }, 
    {
      "op": "Activation", 
      "name": "mixed_7_tower_conv_1_relu", 
      "attr": {"act_type": "relu"}, 
      "inputs": [[520, 0, 0]]
    }, 
    {
      "op": "null", 
      "name": "mixed_7_tower_conv_2_conv2d_weight", 
      "attr": {
        "kernel": "(7, 1)", 
        "no_bias": "True", 
        "num_filter": "192", 
        "pad": "(3, 0)", 
        "stride": "(1, 1)"
      }, 
      "inputs": []
    }, 
    {
      "op": "Convolution", 
      "name": "mixed_7_tower_conv_2_conv2d", 
      "attr": {
        "kernel": "(7, 1)", 
        "no_bias": "True", 
        "num_filter": "192", 
        "pad": "(3, 0)", 
        "stride": "(1, 1)"
      }, 
      "inputs": [[521, 0, 0], [522, 0, 0]]
    }, 
    {
      "op": "null", 
      "name": "mixed_7_tower_conv_2_batchnorm_gamma", 
      "attr": {"fix_gamma": "True"}, 
      "inputs": []
    }, 
    {
      "op": "null", 
      "name": "mixed_7_tower_conv_2_batchnorm_beta", 
      "attr": {"fix_gamma": "True"}, 
      "inputs": []
    }, 
    {
      "op": "null", 
      "name": "mixed_7_tower_conv_2_batchnorm_moving_mean", 
      "attr": {
        "__init__": "[\"zero\", {}]", 
        "fix_gamma": "True"
      }, 
      "inputs": []
    }, 
    {
      "op": "null", 
      "name": "mixed_7_tower_conv_2_batchnorm_moving_var", 
      "attr": {
        "__init__": "[\"one\", {}]", 
        "fix_gamma": "True"
      }, 
      "inputs": []
    }, 
    {
      "op": "BatchNorm", 
      "name": "mixed_7_tower_conv_2_batchnorm", 
      "attr": {"fix_gamma": "True"}, 
      "inputs": [[523, 0, 0], [524, 0, 0], [525, 0, 0], [526, 0, 1], [527, 0, 1]]
    }, 
    {
      "op": "Activation", 
      "name": "mixed_7_tower_conv_2_relu", 
      "attr": {"act_type": "relu"}, 
      "inputs": [[528, 0, 0]]
    }, 
    {
      "op": "null", 
      "name": "mixed_7_tower_1_conv_conv2d_weight", 
      "attr": {
        "kernel": "(1, 1)", 
        "no_bias": "True", 
        "num_filter": "192", 
        "pad": "(0, 0)", 
        "stride": "(1, 1)"
      }, 
      "inputs": []
    }, 
    {
      "op": "Convolution", 
      "name": "mixed_7_tower_1_conv_conv2d", 
      "attr": {
        "kernel": "(1, 1)", 
        "no_bias": "True", 
        "num_filter": "192", 
        "pad": "(0, 0)", 
        "stride": "(1, 1)"
      }, 
      "inputs": [[497, 0, 0], [530, 0, 0]]
    }, 
    {
      "op": "null", 
      "name": "mixed_7_tower_1_conv_batchnorm_gamma", 
      "attr": {"fix_gamma": "True"}, 
      "inputs": []
    }, 
    {
      "op": "null", 
      "name": "mixed_7_tower_1_conv_batchnorm_beta", 
      "attr": {"fix_gamma": "True"}, 
      "inputs": []
    }, 
    {
      "op": "null", 
      "name": "mixed_7_tower_1_conv_batchnorm_moving_mean", 
      "attr": {
        "__init__": "[\"zero\", {}]", 
        "fix_gamma": "True"
      }, 
      "inputs": []
    }, 
    {
      "op": "null", 
      "name": "mixed_7_tower_1_conv_batchnorm_moving_var", 
      "attr": {
        "__init__": "[\"one\", {}]", 
        "fix_gamma": "True"
      }, 
      "inputs": []
    }, 
    {
      "op": "BatchNorm", 
      "name": "mixed_7_tower_1_conv_batchnorm", 
      "attr": {"fix_gamma": "True"}, 
      "inputs": [[531, 0, 0], [532, 0, 0], [533, 0, 0], [534, 0, 1], [535, 0, 1]]
    }, 
    {
      "op": "Activation", 
      "name": "mixed_7_tower_1_conv_relu", 
      "attr": {"act_type": "relu"}, 
      "inputs": [[536, 0, 0]]
    }, 
    {
      "op": "null", 
      "name": "mixed_7_tower_1_conv_1_conv2d_weight", 
      "attr": {
        "kernel": "(7, 1)", 
        "no_bias": "True", 
        "num_filter": "192", 
        "pad": "(3, 0)", 
        "stride": "(1, 1)"
      }, 
      "inputs": []
    }, 
    {
      "op": "Convolution", 
      "name": "mixed_7_tower_1_conv_1_conv2d", 
      "attr": {
        "kernel": "(7, 1)", 
        "no_bias": "True", 
        "num_filter": "192", 
        "pad": "(3, 0)", 
        "stride": "(1, 1)"
      }, 
      "inputs": [[537, 0, 0], [538, 0, 0]]
    }, 
    {
      "op": "null", 
      "name": "mixed_7_tower_1_conv_1_batchnorm_gamma", 
      "attr": {"fix_gamma": "True"}, 
      "inputs": []
    }, 
    {
      "op": "null", 
      "name": "mixed_7_tower_1_conv_1_batchnorm_beta", 
      "attr": {"fix_gamma": "True"}, 
      "inputs": []
    }, 
    {
      "op": "null", 
      "name": "mixed_7_tower_1_conv_1_batchnorm_moving_mean", 
      "attr": {
        "__init__": "[\"zero\", {}]", 
        "fix_gamma": "True"
      }, 
      "inputs": []
    }, 
    {
      "op": "null", 
      "name": "mixed_7_tower_1_conv_1_batchnorm_moving_var", 
      "attr": {
        "__init__": "[\"one\", {}]", 
        "fix_gamma": "True"
      }, 
      "inputs": []
    }, 
    {
      "op": "BatchNorm", 
      "name": "mixed_7_tower_1_conv_1_batchnorm", 
      "attr": {"fix_gamma": "True"}, 
      "inputs": [[539, 0, 0], [540, 0, 0], [541, 0, 0], [542, 0, 1], [543, 0, 1]]
    }, 
    {
      "op": "Activation", 
      "name": "mixed_7_tower_1_conv_1_relu", 
      "attr": {"act_type": "relu"}, 
      "inputs": [[544, 0, 0]]
    }, 
    {
      "op": "null", 
      "name": "mixed_7_tower_1_conv_2_conv2d_weight", 
      "attr": {
        "kernel": "(1, 7)", 
        "no_bias": "True", 
        "num_filter": "192", 
        "pad": "(0, 3)", 
        "stride": "(1, 1)"
      }, 
      "inputs": []
    }, 
    {
      "op": "Convolution", 
      "name": "mixed_7_tower_1_conv_2_conv2d", 
      "attr": {
        "kernel": "(1, 7)", 
        "no_bias": "True", 
        "num_filter": "192", 
        "pad": "(0, 3)", 
        "stride": "(1, 1)"
      }, 
      "inputs": [[545, 0, 0], [546, 0, 0]]
    }, 
    {
      "op": "null", 
      "name": "mixed_7_tower_1_conv_2_batchnorm_gamma", 
      "attr": {"fix_gamma": "True"}, 
      "inputs": []
    }, 
    {
      "op": "null", 
      "name": "mixed_7_tower_1_conv_2_batchnorm_beta", 
      "attr": {"fix_gamma": "True"}, 
      "inputs": []
    }, 
    {
      "op": "null", 
      "name": "mixed_7_tower_1_conv_2_batchnorm_moving_mean", 
      "attr": {
        "__init__": "[\"zero\", {}]", 
        "fix_gamma": "True"
      }, 
      "inputs": []
    }, 
    {
      "op": "null", 
      "name": "mixed_7_tower_1_conv_2_batchnorm_moving_var", 
      "attr": {
        "__init__": "[\"one\", {}]", 
        "fix_gamma": "True"
      }, 
      "inputs": []
    }, 
    {
      "op": "BatchNorm", 
      "name": "mixed_7_tower_1_conv_2_batchnorm", 
      "attr": {"fix_gamma": "True"}, 
      "inputs": [[547, 0, 0], [548, 0, 0], [549, 0, 0], [550, 0, 1], [551, 0, 1]]
    }, 
    {
      "op": "Activation", 
      "name": "mixed_7_tower_1_conv_2_relu", 
      "attr": {"act_type": "relu"}, 
      "inputs": [[552, 0, 0]]
    }, 
    {
      "op": "null", 
      "name": "mixed_7_tower_1_conv_3_conv2d_weight", 
      "attr": {
        "kernel": "(7, 1)", 
        "no_bias": "True", 
        "num_filter": "192", 
        "pad": "(3, 0)", 
        "stride": "(1, 1)"
      }, 
      "inputs": []
    }, 
    {
      "op": "Convolution", 
      "name": "mixed_7_tower_1_conv_3_conv2d", 
      "attr": {
        "kernel": "(7, 1)", 
        "no_bias": "True", 
        "num_filter": "192", 
        "pad": "(3, 0)", 
        "stride": "(1, 1)"
      }, 
      "inputs": [[553, 0, 0], [554, 0, 0]]
    }, 
    {
      "op": "null", 
      "name": "mixed_7_tower_1_conv_3_batchnorm_gamma", 
      "attr": {"fix_gamma": "True"}, 
      "inputs": []
    }, 
    {
      "op": "null", 
      "name": "mixed_7_tower_1_conv_3_batchnorm_beta", 
      "attr": {"fix_gamma": "True"}, 
      "inputs": []
    }, 
    {
      "op": "null", 
      "name": "mixed_7_tower_1_conv_3_batchnorm_moving_mean", 
      "attr": {
        "__init__": "[\"zero\", {}]", 
        "fix_gamma": "True"
      }, 
      "inputs": []
    }, 
    {
      "op": "null", 
      "name": "mixed_7_tower_1_conv_3_batchnorm_moving_var", 
      "attr": {
        "__init__": "[\"one\", {}]", 
        "fix_gamma": "True"
      }, 
      "inputs": []
    }, 
    {
      "op": "BatchNorm", 
      "name": "mixed_7_tower_1_conv_3_batchnorm", 
      "attr": {"fix_gamma": "True"}, 
      "inputs": [[555, 0, 0], [556, 0, 0], [557, 0, 0], [558, 0, 1], [559, 0, 1]]
    }, 
    {
      "op": "Activation", 
      "name": "mixed_7_tower_1_conv_3_relu", 
      "attr": {"act_type": "relu"}, 
      "inputs": [[560, 0, 0]]
    }, 
    {
      "op": "null", 
      "name": "mixed_7_tower_1_conv_4_conv2d_weight", 
      "attr": {
        "kernel": "(1, 7)", 
        "no_bias": "True", 
        "num_filter": "192", 
        "pad": "(0, 3)", 
        "stride": "(1, 1)"
      }, 
      "inputs": []
    }, 
    {
      "op": "Convolution", 
      "name": "mixed_7_tower_1_conv_4_conv2d", 
      "attr": {
        "kernel": "(1, 7)", 
        "no_bias": "True", 
        "num_filter": "192", 
        "pad": "(0, 3)", 
        "stride": "(1, 1)"
      }, 
      "inputs": [[561, 0, 0], [562, 0, 0]]
    }, 
    {
      "op": "null", 
      "name": "mixed_7_tower_1_conv_4_batchnorm_gamma", 
      "attr": {"fix_gamma": "True"}, 
      "inputs": []
    }, 
    {
      "op": "null", 
      "name": "mixed_7_tower_1_conv_4_batchnorm_beta", 
      "attr": {"fix_gamma": "True"}, 
      "inputs": []
    }, 
    {
      "op": "null", 
      "name": "mixed_7_tower_1_conv_4_batchnorm_moving_mean", 
      "attr": {
        "__init__": "[\"zero\", {}]", 
        "fix_gamma": "True"
      }, 
      "inputs": []
    }, 
    {
      "op": "null", 
      "name": "mixed_7_tower_1_conv_4_batchnorm_moving_var", 
      "attr": {
        "__init__": "[\"one\", {}]", 
        "fix_gamma": "True"
      }, 
      "inputs": []
    }, 
    {
      "op": "BatchNorm", 
      "name": "mixed_7_tower_1_conv_4_batchnorm", 
      "attr": {"fix_gamma": "True"}, 
      "inputs": [[563, 0, 0], [564, 0, 0], [565, 0, 0], [566, 0, 1], [567, 0, 1]]
    }, 
    {
      "op": "Activation", 
      "name": "mixed_7_tower_1_conv_4_relu", 
      "attr": {"act_type": "relu"}, 
      "inputs": [[568, 0, 0]]
    }, 
    {
      "op": "Pooling", 
      "name": "avg_pool_mixed_7_pool", 
      "attr": {
        "kernel": "(3, 3)", 
        "pad": "(1, 1)", 
        "pool_type": "avg", 
        "stride": "(1, 1)"
      }, 
      "inputs": [[497, 0, 0]]
    }, 
    {
      "op": "null", 
      "name": "mixed_7_tower_2_conv_conv2d_weight", 
      "attr": {
        "kernel": "(1, 1)", 
        "no_bias": "True", 
        "num_filter": "192", 
        "pad": "(0, 0)", 
        "stride": "(1, 1)"
      }, 
      "inputs": []
    }, 
    {
      "op": "Convolution", 
      "name": "mixed_7_tower_2_conv_conv2d", 
      "attr": {
        "kernel": "(1, 1)", 
        "no_bias": "True", 
        "num_filter": "192", 
        "pad": "(0, 0)", 
        "stride": "(1, 1)"
      }, 
      "inputs": [[570, 0, 0], [571, 0, 0]]
    }, 
    {
      "op": "null", 
      "name": "mixed_7_tower_2_conv_batchnorm_gamma", 
      "attr": {"fix_gamma": "True"}, 
      "inputs": []
    }, 
    {
      "op": "null", 
      "name": "mixed_7_tower_2_conv_batchnorm_beta", 
      "attr": {"fix_gamma": "True"}, 
      "inputs": []
    }, 
    {
      "op": "null", 
      "name": "mixed_7_tower_2_conv_batchnorm_moving_mean", 
      "attr": {
        "__init__": "[\"zero\", {}]", 
        "fix_gamma": "True"
      }, 
      "inputs": []
    }, 
    {
      "op": "null", 
      "name": "mixed_7_tower_2_conv_batchnorm_moving_var", 
      "attr": {
        "__init__": "[\"one\", {}]", 
        "fix_gamma": "True"
      }, 
      "inputs": []
    }, 
    {
      "op": "BatchNorm", 
      "name": "mixed_7_tower_2_conv_batchnorm", 
      "attr": {"fix_gamma": "True"}, 
      "inputs": [[572, 0, 0], [573, 0, 0], [574, 0, 0], [575, 0, 1], [576, 0, 1]]
    }, 
    {
      "op": "Activation", 
      "name": "mixed_7_tower_2_conv_relu", 
      "attr": {"act_type": "relu"}, 
      "inputs": [[577, 0, 0]]
    }, 
    {
      "op": "Concat", 
      "name": "ch_concat_mixed_7_chconcat", 
      "attr": {"num_args": "4"}, 
      "inputs": [[505, 0, 0], [529, 0, 0], [569, 0, 0], [578, 0, 0]]
    }, 
    {
      "op": "null", 
      "name": "mixed_8_tower_conv_conv2d_weight", 
      "attr": {
        "kernel": "(1, 1)", 
        "no_bias": "True", 
        "num_filter": "192", 
        "pad": "(0, 0)", 
        "stride": "(1, 1)"
      }, 
      "inputs": []
    }, 
    {
      "op": "Convolution", 
      "name": "mixed_8_tower_conv_conv2d", 
      "attr": {
        "kernel": "(1, 1)", 
        "no_bias": "True", 
        "num_filter": "192", 
        "pad": "(0, 0)", 
        "stride": "(1, 1)"
      }, 
      "inputs": [[579, 0, 0], [580, 0, 0]]
    }, 
    {
      "op": "null", 
      "name": "mixed_8_tower_conv_batchnorm_gamma", 
      "attr": {"fix_gamma": "True"}, 
      "inputs": []
    }, 
    {
      "op": "null", 
      "name": "mixed_8_tower_conv_batchnorm_beta", 
      "attr": {"fix_gamma": "True"}, 
      "inputs": []
    }, 
    {
      "op": "null", 
      "name": "mixed_8_tower_conv_batchnorm_moving_mean", 
      "attr": {
        "__init__": "[\"zero\", {}]", 
        "fix_gamma": "True"
      }, 
      "inputs": []
    }, 
    {
      "op": "null", 
      "name": "mixed_8_tower_conv_batchnorm_moving_var", 
      "attr": {
        "__init__": "[\"one\", {}]", 
        "fix_gamma": "True"
      }, 
      "inputs": []
    }, 
    {
      "op": "BatchNorm", 
      "name": "mixed_8_tower_conv_batchnorm", 
      "attr": {"fix_gamma": "True"}, 
      "inputs": [[581, 0, 0], [582, 0, 0], [583, 0, 0], [584, 0, 1], [585, 0, 1]]
    }, 
    {
      "op": "Activation", 
      "name": "mixed_8_tower_conv_relu", 
      "attr": {"act_type": "relu"}, 
      "inputs": [[586, 0, 0]]
    }, 
    {
      "op": "null", 
      "name": "mixed_8_tower_conv_1_conv2d_weight", 
      "attr": {
        "kernel": "(3, 3)", 
        "no_bias": "True", 
        "num_filter": "320", 
        "pad": "(0, 0)", 
        "stride": "(2, 2)"
      }, 
      "inputs": []
    }, 
    {
      "op": "Convolution", 
      "name": "mixed_8_tower_conv_1_conv2d", 
      "attr": {
        "kernel": "(3, 3)", 
        "no_bias": "True", 
        "num_filter": "320", 
        "pad": "(0, 0)", 
        "stride": "(2, 2)"
      }, 
      "inputs": [[587, 0, 0], [588, 0, 0]]
    }, 
    {
      "op": "null", 
      "name": "mixed_8_tower_conv_1_batchnorm_gamma", 
      "attr": {"fix_gamma": "True"}, 
      "inputs": []
    }, 
    {
      "op": "null", 
      "name": "mixed_8_tower_conv_1_batchnorm_beta", 
      "attr": {"fix_gamma": "True"}, 
      "inputs": []
    }, 
    {
      "op": "null", 
      "name": "mixed_8_tower_conv_1_batchnorm_moving_mean", 
      "attr": {
        "__init__": "[\"zero\", {}]", 
        "fix_gamma": "True"
      }, 
      "inputs": []
    }, 
    {
      "op": "null", 
      "name": "mixed_8_tower_conv_1_batchnorm_moving_var", 
      "attr": {
        "__init__": "[\"one\", {}]", 
        "fix_gamma": "True"
      }, 
      "inputs": []
    }, 
    {
      "op": "BatchNorm", 
      "name": "mixed_8_tower_conv_1_batchnorm", 
      "attr": {"fix_gamma": "True"}, 
      "inputs": [[589, 0, 0], [590, 0, 0], [591, 0, 0], [592, 0, 1], [593, 0, 1]]
    }, 
    {
      "op": "Activation", 
      "name": "mixed_8_tower_conv_1_relu", 
      "attr": {"act_type": "relu"}, 
      "inputs": [[594, 0, 0]]
    }, 
    {
      "op": "null", 
      "name": "mixed_8_tower_1_conv_conv2d_weight", 
      "attr": {
        "kernel": "(1, 1)", 
        "no_bias": "True", 
        "num_filter": "192", 
        "pad": "(0, 0)", 
        "stride": "(1, 1)"
      }, 
      "inputs": []
    }, 
    {
      "op": "Convolution", 
      "name": "mixed_8_tower_1_conv_conv2d", 
      "attr": {
        "kernel": "(1, 1)", 
        "no_bias": "True", 
        "num_filter": "192", 
        "pad": "(0, 0)", 
        "stride": "(1, 1)"
      }, 
      "inputs": [[579, 0, 0], [596, 0, 0]]
    }, 
    {
      "op": "null", 
      "name": "mixed_8_tower_1_conv_batchnorm_gamma", 
      "attr": {"fix_gamma": "True"}, 
      "inputs": []
    }, 
    {
      "op": "null", 
      "name": "mixed_8_tower_1_conv_batchnorm_beta", 
      "attr": {"fix_gamma": "True"}, 
      "inputs": []
    }, 
    {
      "op": "null", 
      "name": "mixed_8_tower_1_conv_batchnorm_moving_mean", 
      "attr": {
        "__init__": "[\"zero\", {}]", 
        "fix_gamma": "True"
      }, 
      "inputs": []
    }, 
    {
      "op": "null", 
      "name": "mixed_8_tower_1_conv_batchnorm_moving_var", 
      "attr": {
        "__init__": "[\"one\", {}]", 
        "fix_gamma": "True"
      }, 
      "inputs": []
    }, 
    {
      "op": "BatchNorm", 
      "name": "mixed_8_tower_1_conv_batchnorm", 
      "attr": {"fix_gamma": "True"}, 
      "inputs": [[597, 0, 0], [598, 0, 0], [599, 0, 0], [600, 0, 1], [601, 0, 1]]
    }, 
    {
      "op": "Activation", 
      "name": "mixed_8_tower_1_conv_relu", 
      "attr": {"act_type": "relu"}, 
      "inputs": [[602, 0, 0]]
    }, 
    {
      "op": "null", 
      "name": "mixed_8_tower_1_conv_1_conv2d_weight", 
      "attr": {
        "kernel": "(1, 7)", 
        "no_bias": "True", 
        "num_filter": "192", 
        "pad": "(0, 3)", 
        "stride": "(1, 1)"
      }, 
      "inputs": []
    }, 
    {
      "op": "Convolution", 
      "name": "mixed_8_tower_1_conv_1_conv2d", 
      "attr": {
        "kernel": "(1, 7)", 
        "no_bias": "True", 
        "num_filter": "192", 
        "pad": "(0, 3)", 
        "stride": "(1, 1)"
      }, 
      "inputs": [[603, 0, 0], [604, 0, 0]]
    }, 
    {
      "op": "null", 
      "name": "mixed_8_tower_1_conv_1_batchnorm_gamma", 
      "attr": {"fix_gamma": "True"}, 
      "inputs": []
    }, 
    {
      "op": "null", 
      "name": "mixed_8_tower_1_conv_1_batchnorm_beta", 
      "attr": {"fix_gamma": "True"}, 
      "inputs": []
    }, 
    {
      "op": "null", 
      "name": "mixed_8_tower_1_conv_1_batchnorm_moving_mean", 
      "attr": {
        "__init__": "[\"zero\", {}]", 
        "fix_gamma": "True"
      }, 
      "inputs": []
    }, 
    {
      "op": "null", 
      "name": "mixed_8_tower_1_conv_1_batchnorm_moving_var", 
      "attr": {
        "__init__": "[\"one\", {}]", 
        "fix_gamma": "True"
      }, 
      "inputs": []
    }, 
    {
      "op": "BatchNorm", 
      "name": "mixed_8_tower_1_conv_1_batchnorm", 
      "attr": {"fix_gamma": "True"}, 
      "inputs": [[605, 0, 0], [606, 0, 0], [607, 0, 0], [608, 0, 1], [609, 0, 1]]
    }, 
    {
      "op": "Activation", 
      "name": "mixed_8_tower_1_conv_1_relu", 
      "attr": {"act_type": "relu"}, 
      "inputs": [[610, 0, 0]]
    }, 
    {
      "op": "null", 
      "name": "mixed_8_tower_1_conv_2_conv2d_weight", 
      "attr": {
        "kernel": "(7, 1)", 
        "no_bias": "True", 
        "num_filter": "192", 
        "pad": "(3, 0)", 
        "stride": "(1, 1)"
      }, 
      "inputs": []
    }, 
    {
      "op": "Convolution", 
      "name": "mixed_8_tower_1_conv_2_conv2d", 
      "attr": {
        "kernel": "(7, 1)", 
        "no_bias": "True", 
        "num_filter": "192", 
        "pad": "(3, 0)", 
        "stride": "(1, 1)"
      }, 
      "inputs": [[611, 0, 0], [612, 0, 0]]
    }, 
    {
      "op": "null", 
      "name": "mixed_8_tower_1_conv_2_batchnorm_gamma", 
      "attr": {"fix_gamma": "True"}, 
      "inputs": []
    }, 
    {
      "op": "null", 
      "name": "mixed_8_tower_1_conv_2_batchnorm_beta", 
      "attr": {"fix_gamma": "True"}, 
      "inputs": []
    }, 
    {
      "op": "null", 
      "name": "mixed_8_tower_1_conv_2_batchnorm_moving_mean", 
      "attr": {
        "__init__": "[\"zero\", {}]", 
        "fix_gamma": "True"
      }, 
      "inputs": []
    }, 
    {
      "op": "null", 
      "name": "mixed_8_tower_1_conv_2_batchnorm_moving_var", 
      "attr": {
        "__init__": "[\"one\", {}]", 
        "fix_gamma": "True"
      }, 
      "inputs": []
    }, 
    {
      "op": "BatchNorm", 
      "name": "mixed_8_tower_1_conv_2_batchnorm", 
      "attr": {"fix_gamma": "True"}, 
      "inputs": [[613, 0, 0], [614, 0, 0], [615, 0, 0], [616, 0, 1], [617, 0, 1]]
    }, 
    {
      "op": "Activation", 
      "name": "mixed_8_tower_1_conv_2_relu", 
      "attr": {"act_type": "relu"}, 
      "inputs": [[618, 0, 0]]
    }, 
    {
      "op": "null", 
      "name": "mixed_8_tower_1_conv_3_conv2d_weight", 
      "attr": {
        "kernel": "(3, 3)", 
        "no_bias": "True", 
        "num_filter": "192", 
        "pad": "(0, 0)", 
        "stride": "(2, 2)"
      }, 
      "inputs": []
    }, 
    {
      "op": "Convolution", 
      "name": "mixed_8_tower_1_conv_3_conv2d", 
      "attr": {
        "kernel": "(3, 3)", 
        "no_bias": "True", 
        "num_filter": "192", 
        "pad": "(0, 0)", 
        "stride": "(2, 2)"
      }, 
      "inputs": [[619, 0, 0], [620, 0, 0]]
    }, 
    {
      "op": "null", 
      "name": "mixed_8_tower_1_conv_3_batchnorm_gamma", 
      "attr": {"fix_gamma": "True"}, 
      "inputs": []
    }, 
    {
      "op": "null", 
      "name": "mixed_8_tower_1_conv_3_batchnorm_beta", 
      "attr": {"fix_gamma": "True"}, 
      "inputs": []
    }, 
    {
      "op": "null", 
      "name": "mixed_8_tower_1_conv_3_batchnorm_moving_mean", 
      "attr": {
        "__init__": "[\"zero\", {}]", 
        "fix_gamma": "True"
      }, 
      "inputs": []
    }, 
    {
      "op": "null", 
      "name": "mixed_8_tower_1_conv_3_batchnorm_moving_var", 
      "attr": {
        "__init__": "[\"one\", {}]", 
        "fix_gamma": "True"
      }, 
      "inputs": []
    }, 
    {
      "op": "BatchNorm", 
      "name": "mixed_8_tower_1_conv_3_batchnorm", 
      "attr": {"fix_gamma": "True"}, 
      "inputs": [[621, 0, 0], [622, 0, 0], [623, 0, 0], [624, 0, 1], [625, 0, 1]]
    }, 
    {
      "op": "Activation", 
      "name": "mixed_8_tower_1_conv_3_relu", 
      "attr": {"act_type": "relu"}, 
      "inputs": [[626, 0, 0]]
    }, 
    {
      "op": "Pooling", 
      "name": "max_pool_mixed_8_pool", 
      "attr": {
        "kernel": "(3, 3)", 
        "pool_type": "max", 
        "stride": "(2, 2)"
      }, 
      "inputs": [[579, 0, 0]]
    }, 
    {
      "op": "Concat", 
      "name": "ch_concat_mixed_8_chconcat", 
      "attr": {"num_args": "3"}, 
      "inputs": [[595, 0, 0], [627, 0, 0], [628, 0, 0]]
    }, 
    {
      "op": "null", 
      "name": "mixed_9_conv_conv2d_weight", 
      "attr": {
        "kernel": "(1, 1)", 
        "no_bias": "True", 
        "num_filter": "320", 
        "pad": "(0, 0)", 
        "stride": "(1, 1)"
      }, 
      "inputs": []
    }, 
    {
      "op": "Convolution", 
      "name": "mixed_9_conv_conv2d", 
      "attr": {
        "kernel": "(1, 1)", 
        "no_bias": "True", 
        "num_filter": "320", 
        "pad": "(0, 0)", 
        "stride": "(1, 1)"
      }, 
      "inputs": [[629, 0, 0], [630, 0, 0]]
    }, 
    {
      "op": "null", 
      "name": "mixed_9_conv_batchnorm_gamma", 
      "attr": {"fix_gamma": "True"}, 
      "inputs": []
    }, 
    {
      "op": "null", 
      "name": "mixed_9_conv_batchnorm_beta", 
      "attr": {"fix_gamma": "True"}, 
      "inputs": []
    }, 
    {
      "op": "null", 
      "name": "mixed_9_conv_batchnorm_moving_mean", 
      "attr": {
        "__init__": "[\"zero\", {}]", 
        "fix_gamma": "True"
      }, 
      "inputs": []
    }, 
    {
      "op": "null", 
      "name": "mixed_9_conv_batchnorm_moving_var", 
      "attr": {
        "__init__": "[\"one\", {}]", 
        "fix_gamma": "True"
      }, 
      "inputs": []
    }, 
    {
      "op": "BatchNorm", 
      "name": "mixed_9_conv_batchnorm", 
      "attr": {"fix_gamma": "True"}, 
      "inputs": [[631, 0, 0], [632, 0, 0], [633, 0, 0], [634, 0, 1], [635, 0, 1]]
    }, 
    {
      "op": "Activation", 
      "name": "mixed_9_conv_relu", 
      "attr": {"act_type": "relu"}, 
      "inputs": [[636, 0, 0]]
    }, 
    {
      "op": "null", 
      "name": "mixed_9_tower_conv_conv2d_weight", 
      "attr": {
        "kernel": "(1, 1)", 
        "no_bias": "True", 
        "num_filter": "384", 
        "pad": "(0, 0)", 
        "stride": "(1, 1)"
      }, 
      "inputs": []
    }, 
    {
      "op": "Convolution", 
      "name": "mixed_9_tower_conv_conv2d", 
      "attr": {
        "kernel": "(1, 1)", 
        "no_bias": "True", 
        "num_filter": "384", 
        "pad": "(0, 0)", 
        "stride": "(1, 1)"
      }, 
      "inputs": [[629, 0, 0], [638, 0, 0]]
    }, 
    {
      "op": "null", 
      "name": "mixed_9_tower_conv_batchnorm_gamma", 
      "attr": {"fix_gamma": "True"}, 
      "inputs": []
    }, 
    {
      "op": "null", 
      "name": "mixed_9_tower_conv_batchnorm_beta", 
      "attr": {"fix_gamma": "True"}, 
      "inputs": []
    }, 
    {
      "op": "null", 
      "name": "mixed_9_tower_conv_batchnorm_moving_mean", 
      "attr": {
        "__init__": "[\"zero\", {}]", 
        "fix_gamma": "True"
      }, 
      "inputs": []
    }, 
    {
      "op": "null", 
      "name": "mixed_9_tower_conv_batchnorm_moving_var", 
      "attr": {
        "__init__": "[\"one\", {}]", 
        "fix_gamma": "True"
      }, 
      "inputs": []
    }, 
    {
      "op": "BatchNorm", 
      "name": "mixed_9_tower_conv_batchnorm", 
      "attr": {"fix_gamma": "True"}, 
      "inputs": [[639, 0, 0], [640, 0, 0], [641, 0, 0], [642, 0, 1], [643, 0, 1]]
    }, 
    {
      "op": "Activation", 
      "name": "mixed_9_tower_conv_relu", 
      "attr": {"act_type": "relu"}, 
      "inputs": [[644, 0, 0]]
    }, 
    {
      "op": "null", 
      "name": "mixed_9_tower_mixed_conv_conv2d_weight", 
      "attr": {
        "kernel": "(1, 3)", 
        "no_bias": "True", 
        "num_filter": "384", 
        "pad": "(0, 1)", 
        "stride": "(1, 1)"
      }, 
      "inputs": []
    }, 
    {
      "op": "Convolution", 
      "name": "mixed_9_tower_mixed_conv_conv2d", 
      "attr": {
        "kernel": "(1, 3)", 
        "no_bias": "True", 
        "num_filter": "384", 
        "pad": "(0, 1)", 
        "stride": "(1, 1)"
      }, 
      "inputs": [[645, 0, 0], [646, 0, 0]]
    }, 
    {
      "op": "null", 
      "name": "mixed_9_tower_mixed_conv_batchnorm_gamma", 
      "attr": {"fix_gamma": "True"}, 
      "inputs": []
    }, 
    {
      "op": "null", 
      "name": "mixed_9_tower_mixed_conv_batchnorm_beta", 
      "attr": {"fix_gamma": "True"}, 
      "inputs": []
    }, 
    {
      "op": "null", 
      "name": "mixed_9_tower_mixed_conv_batchnorm_moving_mean", 
      "attr": {
        "__init__": "[\"zero\", {}]", 
        "fix_gamma": "True"
      }, 
      "inputs": []
    }, 
    {
      "op": "null", 
      "name": "mixed_9_tower_mixed_conv_batchnorm_moving_var", 
      "attr": {
        "__init__": "[\"one\", {}]", 
        "fix_gamma": "True"
      }, 
      "inputs": []
    }, 
    {
      "op": "BatchNorm", 
      "name": "mixed_9_tower_mixed_conv_batchnorm", 
      "attr": {"fix_gamma": "True"}, 
      "inputs": [[647, 0, 0], [648, 0, 0], [649, 0, 0], [650, 0, 1], [651, 0, 1]]
    }, 
    {
      "op": "Activation", 
      "name": "mixed_9_tower_mixed_conv_relu", 
      "attr": {"act_type": "relu"}, 
      "inputs": [[652, 0, 0]]
    }, 
    {
      "op": "null", 
      "name": "mixed_9_tower_mixed_conv_1_conv2d_weight", 
      "attr": {
        "kernel": "(3, 1)", 
        "no_bias": "True", 
        "num_filter": "384", 
        "pad": "(1, 0)", 
        "stride": "(1, 1)"
      }, 
      "inputs": []
    }, 
    {
      "op": "Convolution", 
      "name": "mixed_9_tower_mixed_conv_1_conv2d", 
      "attr": {
        "kernel": "(3, 1)", 
        "no_bias": "True", 
        "num_filter": "384", 
        "pad": "(1, 0)", 
        "stride": "(1, 1)"
      }, 
      "inputs": [[645, 0, 0], [654, 0, 0]]
    }, 
    {
      "op": "null", 
      "name": "mixed_9_tower_mixed_conv_1_batchnorm_gamma", 
      "attr": {"fix_gamma": "True"}, 
      "inputs": []
    }, 
    {
      "op": "null", 
      "name": "mixed_9_tower_mixed_conv_1_batchnorm_beta", 
      "attr": {"fix_gamma": "True"}, 
      "inputs": []
    }, 
    {
      "op": "null", 
      "name": "mixed_9_tower_mixed_conv_1_batchnorm_moving_mean", 
      "attr": {
        "__init__": "[\"zero\", {}]", 
        "fix_gamma": "True"
      }, 
      "inputs": []
    }, 
    {
      "op": "null", 
      "name": "mixed_9_tower_mixed_conv_1_batchnorm_moving_var", 
      "attr": {
        "__init__": "[\"one\", {}]", 
        "fix_gamma": "True"
      }, 
      "inputs": []
    }, 
    {
      "op": "BatchNorm", 
      "name": "mixed_9_tower_mixed_conv_1_batchnorm", 
      "attr": {"fix_gamma": "True"}, 
      "inputs": [[655, 0, 0], [656, 0, 0], [657, 0, 0], [658, 0, 1], [659, 0, 1]]
    }, 
    {
      "op": "Activation", 
      "name": "mixed_9_tower_mixed_conv_1_relu", 
      "attr": {"act_type": "relu"}, 
      "inputs": [[660, 0, 0]]
    }, 
    {
      "op": "null", 
      "name": "mixed_9_tower_1_conv_conv2d_weight", 
      "attr": {
        "kernel": "(1, 1)", 
        "no_bias": "True", 
        "num_filter": "448", 
        "pad": "(0, 0)", 
        "stride": "(1, 1)"
      }, 
      "inputs": []
    }, 
    {
      "op": "Convolution", 
      "name": "mixed_9_tower_1_conv_conv2d", 
      "attr": {
        "kernel": "(1, 1)", 
        "no_bias": "True", 
        "num_filter": "448", 
        "pad": "(0, 0)", 
        "stride": "(1, 1)"
      }, 
      "inputs": [[629, 0, 0], [662, 0, 0]]
    }, 
    {
      "op": "null", 
      "name": "mixed_9_tower_1_conv_batchnorm_gamma", 
      "attr": {"fix_gamma": "True"}, 
      "inputs": []
    }, 
    {
      "op": "null", 
      "name": "mixed_9_tower_1_conv_batchnorm_beta", 
      "attr": {"fix_gamma": "True"}, 
      "inputs": []
    }, 
    {
      "op": "null", 
      "name": "mixed_9_tower_1_conv_batchnorm_moving_mean", 
      "attr": {
        "__init__": "[\"zero\", {}]", 
        "fix_gamma": "True"
      }, 
      "inputs": []
    }, 
    {
      "op": "null", 
      "name": "mixed_9_tower_1_conv_batchnorm_moving_var", 
      "attr": {
        "__init__": "[\"one\", {}]", 
        "fix_gamma": "True"
      }, 
      "inputs": []
    }, 
    {
      "op": "BatchNorm", 
      "name": "mixed_9_tower_1_conv_batchnorm", 
      "attr": {"fix_gamma": "True"}, 
      "inputs": [[663, 0, 0], [664, 0, 0], [665, 0, 0], [666, 0, 1], [667, 0, 1]]
    }, 
    {
      "op": "Activation", 
      "name": "mixed_9_tower_1_conv_relu", 
      "attr": {"act_type": "relu"}, 
      "inputs": [[668, 0, 0]]
    }, 
    {
      "op": "null", 
      "name": "mixed_9_tower_1_conv_1_conv2d_weight", 
      "attr": {
        "kernel": "(3, 3)", 
        "no_bias": "True", 
        "num_filter": "384", 
        "pad": "(1, 1)", 
        "stride": "(1, 1)"
      }, 
      "inputs": []
    }, 
    {
      "op": "Convolution", 
      "name": "mixed_9_tower_1_conv_1_conv2d", 
      "attr": {
        "kernel": "(3, 3)", 
        "no_bias": "True", 
        "num_filter": "384", 
        "pad": "(1, 1)", 
        "stride": "(1, 1)"
      }, 
      "inputs": [[669, 0, 0], [670, 0, 0]]
    }, 
    {
      "op": "null", 
      "name": "mixed_9_tower_1_conv_1_batchnorm_gamma", 
      "attr": {"fix_gamma": "True"}, 
      "inputs": []
    }, 
    {
      "op": "null", 
      "name": "mixed_9_tower_1_conv_1_batchnorm_beta", 
      "attr": {"fix_gamma": "True"}, 
      "inputs": []
    }, 
    {
      "op": "null", 
      "name": "mixed_9_tower_1_conv_1_batchnorm_moving_mean", 
      "attr": {
        "__init__": "[\"zero\", {}]", 
        "fix_gamma": "True"
      }, 
      "inputs": []
    }, 
    {
      "op": "null", 
      "name": "mixed_9_tower_1_conv_1_batchnorm_moving_var", 
      "attr": {
        "__init__": "[\"one\", {}]", 
        "fix_gamma": "True"
      }, 
      "inputs": []
    }, 
    {
      "op": "BatchNorm", 
      "name": "mixed_9_tower_1_conv_1_batchnorm", 
      "attr": {"fix_gamma": "True"}, 
      "inputs": [[671, 0, 0], [672, 0, 0], [673, 0, 0], [674, 0, 1], [675, 0, 1]]
    }, 
    {
      "op": "Activation", 
      "name": "mixed_9_tower_1_conv_1_relu", 
      "attr": {"act_type": "relu"}, 
      "inputs": [[676, 0, 0]]
    }, 
    {
      "op": "null", 
      "name": "mixed_9_tower_1_mixed_conv_conv2d_weight", 
      "attr": {
        "kernel": "(1, 3)", 
        "no_bias": "True", 
        "num_filter": "384", 
        "pad": "(0, 1)", 
        "stride": "(1, 1)"
      }, 
      "inputs": []
    }, 
    {
      "op": "Convolution", 
      "name": "mixed_9_tower_1_mixed_conv_conv2d", 
      "attr": {
        "kernel": "(1, 3)", 
        "no_bias": "True", 
        "num_filter": "384", 
        "pad": "(0, 1)", 
        "stride": "(1, 1)"
      }, 
      "inputs": [[677, 0, 0], [678, 0, 0]]
    }, 
    {
      "op": "null", 
      "name": "mixed_9_tower_1_mixed_conv_batchnorm_gamma", 
      "attr": {"fix_gamma": "True"}, 
      "inputs": []
    }, 
    {
      "op": "null", 
      "name": "mixed_9_tower_1_mixed_conv_batchnorm_beta", 
      "attr": {"fix_gamma": "True"}, 
      "inputs": []
    }, 
    {
      "op": "null", 
      "name": "mixed_9_tower_1_mixed_conv_batchnorm_moving_mean", 
      "attr": {
        "__init__": "[\"zero\", {}]", 
        "fix_gamma": "True"
      }, 
      "inputs": []
    }, 
    {
      "op": "null", 
      "name": "mixed_9_tower_1_mixed_conv_batchnorm_moving_var", 
      "attr": {
        "__init__": "[\"one\", {}]", 
        "fix_gamma": "True"
      }, 
      "inputs": []
    }, 
    {
      "op": "BatchNorm", 
      "name": "mixed_9_tower_1_mixed_conv_batchnorm", 
      "attr": {"fix_gamma": "True"}, 
      "inputs": [[679, 0, 0], [680, 0, 0], [681, 0, 0], [682, 0, 1], [683, 0, 1]]
    }, 
    {
      "op": "Activation", 
      "name": "mixed_9_tower_1_mixed_conv_relu", 
      "attr": {"act_type": "relu"}, 
      "inputs": [[684, 0, 0]]
    }, 
    {
      "op": "null", 
      "name": "mixed_9_tower_1_mixed_conv_1_conv2d_weight", 
      "attr": {
        "kernel": "(3, 1)", 
        "no_bias": "True", 
        "num_filter": "384", 
        "pad": "(1, 0)", 
        "stride": "(1, 1)"
      }, 
      "inputs": []
    }, 
    {
      "op": "Convolution", 
      "name": "mixed_9_tower_1_mixed_conv_1_conv2d", 
      "attr": {
        "kernel": "(3, 1)", 
        "no_bias": "True", 
        "num_filter": "384", 
        "pad": "(1, 0)", 
        "stride": "(1, 1)"
      }, 
      "inputs": [[677, 0, 0], [686, 0, 0]]
    }, 
    {
      "op": "null", 
      "name": "mixed_9_tower_1_mixed_conv_1_batchnorm_gamma", 
      "attr": {"fix_gamma": "True"}, 
      "inputs": []
    }, 
    {
      "op": "null", 
      "name": "mixed_9_tower_1_mixed_conv_1_batchnorm_beta", 
      "attr": {"fix_gamma": "True"}, 
      "inputs": []
    }, 
    {
      "op": "null", 
      "name": "mixed_9_tower_1_mixed_conv_1_batchnorm_moving_mean", 
      "attr": {
        "__init__": "[\"zero\", {}]", 
        "fix_gamma": "True"
      }, 
      "inputs": []
    }, 
    {
      "op": "null", 
      "name": "mixed_9_tower_1_mixed_conv_1_batchnorm_moving_var", 
      "attr": {
        "__init__": "[\"one\", {}]", 
        "fix_gamma": "True"
      }, 
      "inputs": []
    }, 
    {
      "op": "BatchNorm", 
      "name": "mixed_9_tower_1_mixed_conv_1_batchnorm", 
      "attr": {"fix_gamma": "True"}, 
      "inputs": [[687, 0, 0], [688, 0, 0], [689, 0, 0], [690, 0, 1], [691, 0, 1]]
    }, 
    {
      "op": "Activation", 
      "name": "mixed_9_tower_1_mixed_conv_1_relu", 
      "attr": {"act_type": "relu"}, 
      "inputs": [[692, 0, 0]]
    }, 
    {
      "op": "Pooling", 
      "name": "avg_pool_mixed_9_pool", 
      "attr": {
        "kernel": "(3, 3)", 
        "pad": "(1, 1)", 
        "pool_type": "avg", 
        "stride": "(1, 1)"
      }, 
      "inputs": [[629, 0, 0]]
    }, 
    {
      "op": "null", 
      "name": "mixed_9_tower_2_conv_conv2d_weight", 
      "attr": {
        "kernel": "(1, 1)", 
        "no_bias": "True", 
        "num_filter": "192", 
        "pad": "(0, 0)", 
        "stride": "(1, 1)"
      }, 
      "inputs": []
    }, 
    {
      "op": "Convolution", 
      "name": "mixed_9_tower_2_conv_conv2d", 
      "attr": {
        "kernel": "(1, 1)", 
        "no_bias": "True", 
        "num_filter": "192", 
        "pad": "(0, 0)", 
        "stride": "(1, 1)"
      }, 
      "inputs": [[694, 0, 0], [695, 0, 0]]
    }, 
    {
      "op": "null", 
      "name": "mixed_9_tower_2_conv_batchnorm_gamma", 
      "attr": {"fix_gamma": "True"}, 
      "inputs": []
    }, 
    {
      "op": "null", 
      "name": "mixed_9_tower_2_conv_batchnorm_beta", 
      "attr": {"fix_gamma": "True"}, 
      "inputs": []
    }, 
    {
      "op": "null", 
      "name": "mixed_9_tower_2_conv_batchnorm_moving_mean", 
      "attr": {
        "__init__": "[\"zero\", {}]", 
        "fix_gamma": "True"
      }, 
      "inputs": []
    }, 
    {
      "op": "null", 
      "name": "mixed_9_tower_2_conv_batchnorm_moving_var", 
      "attr": {
        "__init__": "[\"one\", {}]", 
        "fix_gamma": "True"
      }, 
      "inputs": []
    }, 
    {
      "op": "BatchNorm", 
      "name": "mixed_9_tower_2_conv_batchnorm", 
      "attr": {"fix_gamma": "True"}, 
      "inputs": [[696, 0, 0], [697, 0, 0], [698, 0, 0], [699, 0, 1], [700, 0, 1]]
    }, 
    {
      "op": "Activation", 
      "name": "mixed_9_tower_2_conv_relu", 
      "attr": {"act_type": "relu"}, 
      "inputs": [[701, 0, 0]]
    }, 
    {
      "op": "Concat", 
      "name": "ch_concat_mixed_9_chconcat", 
      "attr": {"num_args": "6"}, 
      "inputs": [[637, 0, 0], [653, 0, 0], [661, 0, 0], [685, 0, 0], [693, 0, 0], [702, 0, 0]]
    }, 
    {
      "op": "null", 
      "name": "mixed_10_conv_conv2d_weight", 
      "attr": {
        "kernel": "(1, 1)", 
        "no_bias": "True", 
        "num_filter": "320", 
        "pad": "(0, 0)", 
        "stride": "(1, 1)"
      }, 
      "inputs": []
    }, 
    {
      "op": "Convolution", 
      "name": "mixed_10_conv_conv2d", 
      "attr": {
        "kernel": "(1, 1)", 
        "no_bias": "True", 
        "num_filter": "320", 
        "pad": "(0, 0)", 
        "stride": "(1, 1)"
      }, 
      "inputs": [[703, 0, 0], [704, 0, 0]]
    }, 
    {
      "op": "null", 
      "name": "mixed_10_conv_batchnorm_gamma", 
      "attr": {"fix_gamma": "True"}, 
      "inputs": []
    }, 
    {
      "op": "null", 
      "name": "mixed_10_conv_batchnorm_beta", 
      "attr": {"fix_gamma": "True"}, 
      "inputs": []
    }, 
    {
      "op": "null", 
      "name": "mixed_10_conv_batchnorm_moving_mean", 
      "attr": {
        "__init__": "[\"zero\", {}]", 
        "fix_gamma": "True"
      }, 
      "inputs": []
    }, 
    {
      "op": "null", 
      "name": "mixed_10_conv_batchnorm_moving_var", 
      "attr": {
        "__init__": "[\"one\", {}]", 
        "fix_gamma": "True"
      }, 
      "inputs": []
    }, 
    {
      "op": "BatchNorm", 
      "name": "mixed_10_conv_batchnorm", 
      "attr": {"fix_gamma": "True"}, 
      "inputs": [[705, 0, 0], [706, 0, 0], [707, 0, 0], [708, 0, 1], [709, 0, 1]]
    }, 
    {
      "op": "Activation", 
      "name": "mixed_10_conv_relu", 
      "attr": {"act_type": "relu"}, 
      "inputs": [[710, 0, 0]]
    }, 
    {
      "op": "null", 
      "name": "mixed_10_tower_conv_conv2d_weight", 
      "attr": {
        "kernel": "(1, 1)", 
        "no_bias": "True", 
        "num_filter": "384", 
        "pad": "(0, 0)", 
        "stride": "(1, 1)"
      }, 
      "inputs": []
    }, 
    {
      "op": "Convolution", 
      "name": "mixed_10_tower_conv_conv2d", 
      "attr": {
        "kernel": "(1, 1)", 
        "no_bias": "True", 
        "num_filter": "384", 
        "pad": "(0, 0)", 
        "stride": "(1, 1)"
      }, 
      "inputs": [[703, 0, 0], [712, 0, 0]]
    }, 
    {
      "op": "null", 
      "name": "mixed_10_tower_conv_batchnorm_gamma", 
      "attr": {"fix_gamma": "True"}, 
      "inputs": []
    }, 
    {
      "op": "null", 
      "name": "mixed_10_tower_conv_batchnorm_beta", 
      "attr": {"fix_gamma": "True"}, 
      "inputs": []
    }, 
    {
      "op": "null", 
      "name": "mixed_10_tower_conv_batchnorm_moving_mean", 
      "attr": {
        "__init__": "[\"zero\", {}]", 
        "fix_gamma": "True"
      }, 
      "inputs": []
    }, 
    {
      "op": "null", 
      "name": "mixed_10_tower_conv_batchnorm_moving_var", 
      "attr": {
        "__init__": "[\"one\", {}]", 
        "fix_gamma": "True"
      }, 
      "inputs": []
    }, 
    {
      "op": "BatchNorm", 
      "name": "mixed_10_tower_conv_batchnorm", 
      "attr": {"fix_gamma": "True"}, 
      "inputs": [[713, 0, 0], [714, 0, 0], [715, 0, 0], [716, 0, 1], [717, 0, 1]]
    }, 
    {
      "op": "Activation", 
      "name": "mixed_10_tower_conv_relu", 
      "attr": {"act_type": "relu"}, 
      "inputs": [[718, 0, 0]]
    }, 
    {
      "op": "null", 
      "name": "mixed_10_tower_mixed_conv_conv2d_weight", 
      "attr": {
        "kernel": "(1, 3)", 
        "no_bias": "True", 
        "num_filter": "384", 
        "pad": "(0, 1)", 
        "stride": "(1, 1)"
      }, 
      "inputs": []
    }, 
    {
      "op": "Convolution", 
      "name": "mixed_10_tower_mixed_conv_conv2d", 
      "attr": {
        "kernel": "(1, 3)", 
        "no_bias": "True", 
        "num_filter": "384", 
        "pad": "(0, 1)", 
        "stride": "(1, 1)"
      }, 
      "inputs": [[719, 0, 0], [720, 0, 0]]
    }, 
    {
      "op": "null", 
      "name": "mixed_10_tower_mixed_conv_batchnorm_gamma", 
      "attr": {"fix_gamma": "True"}, 
      "inputs": []
    }, 
    {
      "op": "null", 
      "name": "mixed_10_tower_mixed_conv_batchnorm_beta", 
      "attr": {"fix_gamma": "True"}, 
      "inputs": []
    }, 
    {
      "op": "null", 
      "name": "mixed_10_tower_mixed_conv_batchnorm_moving_mean", 
      "attr": {
        "__init__": "[\"zero\", {}]", 
        "fix_gamma": "True"
      }, 
      "inputs": []
    }, 
    {
      "op": "null", 
      "name": "mixed_10_tower_mixed_conv_batchnorm_moving_var", 
      "attr": {
        "__init__": "[\"one\", {}]", 
        "fix_gamma": "True"
      }, 
      "inputs": []
    }, 
    {
      "op": "BatchNorm", 
      "name": "mixed_10_tower_mixed_conv_batchnorm", 
      "attr": {"fix_gamma": "True"}, 
      "inputs": [[721, 0, 0], [722, 0, 0], [723, 0, 0], [724, 0, 1], [725, 0, 1]]
    }, 
    {
      "op": "Activation", 
      "name": "mixed_10_tower_mixed_conv_relu", 
      "attr": {"act_type": "relu"}, 
      "inputs": [[726, 0, 0]]
    }, 
    {
      "op": "null", 
      "name": "mixed_10_tower_mixed_conv_1_conv2d_weight", 
      "attr": {
        "kernel": "(3, 1)", 
        "no_bias": "True", 
        "num_filter": "384", 
        "pad": "(1, 0)", 
        "stride": "(1, 1)"
      }, 
      "inputs": []
    }, 
    {
      "op": "Convolution", 
      "name": "mixed_10_tower_mixed_conv_1_conv2d", 
      "attr": {
        "kernel": "(3, 1)", 
        "no_bias": "True", 
        "num_filter": "384", 
        "pad": "(1, 0)", 
        "stride": "(1, 1)"
      }, 
      "inputs": [[719, 0, 0], [728, 0, 0]]
    }, 
    {
      "op": "null", 
      "name": "mixed_10_tower_mixed_conv_1_batchnorm_gamma", 
      "attr": {"fix_gamma": "True"}, 
      "inputs": []
    }, 
    {
      "op": "null", 
      "name": "mixed_10_tower_mixed_conv_1_batchnorm_beta", 
      "attr": {"fix_gamma": "True"}, 
      "inputs": []
    }, 
    {
      "op": "null", 
      "name": "mixed_10_tower_mixed_conv_1_batchnorm_moving_mean", 
      "attr": {
        "__init__": "[\"zero\", {}]", 
        "fix_gamma": "True"
      }, 
      "inputs": []
    }, 
    {
      "op": "null", 
      "name": "mixed_10_tower_mixed_conv_1_batchnorm_moving_var", 
      "attr": {
        "__init__": "[\"one\", {}]", 
        "fix_gamma": "True"
      }, 
      "inputs": []
    }, 
    {
      "op": "BatchNorm", 
      "name": "mixed_10_tower_mixed_conv_1_batchnorm", 
      "attr": {"fix_gamma": "True"}, 
      "inputs": [[729, 0, 0], [730, 0, 0], [731, 0, 0], [732, 0, 1], [733, 0, 1]]
    }, 
    {
      "op": "Activation", 
      "name": "mixed_10_tower_mixed_conv_1_relu", 
      "attr": {"act_type": "relu"}, 
      "inputs": [[734, 0, 0]]
    }, 
    {
      "op": "null", 
      "name": "mixed_10_tower_1_conv_conv2d_weight", 
      "attr": {
        "kernel": "(1, 1)", 
        "no_bias": "True", 
        "num_filter": "448", 
        "pad": "(0, 0)", 
        "stride": "(1, 1)"
      }, 
      "inputs": []
    }, 
    {
      "op": "Convolution", 
      "name": "mixed_10_tower_1_conv_conv2d", 
      "attr": {
        "kernel": "(1, 1)", 
        "no_bias": "True", 
        "num_filter": "448", 
        "pad": "(0, 0)", 
        "stride": "(1, 1)"
      }, 
      "inputs": [[703, 0, 0], [736, 0, 0]]
    }, 
    {
      "op": "null", 
      "name": "mixed_10_tower_1_conv_batchnorm_gamma", 
      "attr": {"fix_gamma": "True"}, 
      "inputs": []
    }, 
    {
      "op": "null", 
      "name": "mixed_10_tower_1_conv_batchnorm_beta", 
      "attr": {"fix_gamma": "True"}, 
      "inputs": []
    }, 
    {
      "op": "null", 
      "name": "mixed_10_tower_1_conv_batchnorm_moving_mean", 
      "attr": {
        "__init__": "[\"zero\", {}]", 
        "fix_gamma": "True"
      }, 
      "inputs": []
    }, 
    {
      "op": "null", 
      "name": "mixed_10_tower_1_conv_batchnorm_moving_var", 
      "attr": {
        "__init__": "[\"one\", {}]", 
        "fix_gamma": "True"
      }, 
      "inputs": []
    }, 
    {
      "op": "BatchNorm", 
      "name": "mixed_10_tower_1_conv_batchnorm", 
      "attr": {"fix_gamma": "True"}, 
      "inputs": [[737, 0, 0], [738, 0, 0], [739, 0, 0], [740, 0, 1], [741, 0, 1]]
    }, 
    {
      "op": "Activation", 
      "name": "mixed_10_tower_1_conv_relu", 
      "attr": {"act_type": "relu"}, 
      "inputs": [[742, 0, 0]]
    }, 
    {
      "op": "null", 
      "name": "mixed_10_tower_1_conv_1_conv2d_weight", 
      "attr": {
        "kernel": "(3, 3)", 
        "no_bias": "True", 
        "num_filter": "384", 
        "pad": "(1, 1)", 
        "stride": "(1, 1)"
      }, 
      "inputs": []
    }, 
    {
      "op": "Convolution", 
      "name": "mixed_10_tower_1_conv_1_conv2d", 
      "attr": {
        "kernel": "(3, 3)", 
        "no_bias": "True", 
        "num_filter": "384", 
        "pad": "(1, 1)", 
        "stride": "(1, 1)"
      }, 
      "inputs": [[743, 0, 0], [744, 0, 0]]
    }, 
    {
      "op": "null", 
      "name": "mixed_10_tower_1_conv_1_batchnorm_gamma", 
      "attr": {"fix_gamma": "True"}, 
      "inputs": []
    }, 
    {
      "op": "null", 
      "name": "mixed_10_tower_1_conv_1_batchnorm_beta", 
      "attr": {"fix_gamma": "True"}, 
      "inputs": []
    }, 
    {
      "op": "null", 
      "name": "mixed_10_tower_1_conv_1_batchnorm_moving_mean", 
      "attr": {
        "__init__": "[\"zero\", {}]", 
        "fix_gamma": "True"
      }, 
      "inputs": []
    }, 
    {
      "op": "null", 
      "name": "mixed_10_tower_1_conv_1_batchnorm_moving_var", 
      "attr": {
        "__init__": "[\"one\", {}]", 
        "fix_gamma": "True"
      }, 
      "inputs": []
    }, 
    {
      "op": "BatchNorm", 
      "name": "mixed_10_tower_1_conv_1_batchnorm", 
      "attr": {"fix_gamma": "True"}, 
      "inputs": [[745, 0, 0], [746, 0, 0], [747, 0, 0], [748, 0, 1], [749, 0, 1]]
    }, 
    {
      "op": "Activation", 
      "name": "mixed_10_tower_1_conv_1_relu", 
      "attr": {"act_type": "relu"}, 
      "inputs": [[750, 0, 0]]
    }, 
    {
      "op": "null", 
      "name": "mixed_10_tower_1_mixed_conv_conv2d_weight", 
      "attr": {
        "kernel": "(1, 3)", 
        "no_bias": "True", 
        "num_filter": "384", 
        "pad": "(0, 1)", 
        "stride": "(1, 1)"
      }, 
      "inputs": []
    }, 
    {
      "op": "Convolution", 
      "name": "mixed_10_tower_1_mixed_conv_conv2d", 
      "attr": {
        "kernel": "(1, 3)", 
        "no_bias": "True", 
        "num_filter": "384", 
        "pad": "(0, 1)", 
        "stride": "(1, 1)"
      }, 
      "inputs": [[751, 0, 0], [752, 0, 0]]
    }, 
    {
      "op": "null", 
      "name": "mixed_10_tower_1_mixed_conv_batchnorm_gamma", 
      "attr": {"fix_gamma": "True"}, 
      "inputs": []
    }, 
    {
      "op": "null", 
      "name": "mixed_10_tower_1_mixed_conv_batchnorm_beta", 
      "attr": {"fix_gamma": "True"}, 
      "inputs": []
    }, 
    {
      "op": "null", 
      "name": "mixed_10_tower_1_mixed_conv_batchnorm_moving_mean", 
      "attr": {
        "__init__": "[\"zero\", {}]", 
        "fix_gamma": "True"
      }, 
      "inputs": []
    }, 
    {
      "op": "null", 
      "name": "mixed_10_tower_1_mixed_conv_batchnorm_moving_var", 
      "attr": {
        "__init__": "[\"one\", {}]", 
        "fix_gamma": "True"
      }, 
      "inputs": []
    }, 
    {
      "op": "BatchNorm", 
      "name": "mixed_10_tower_1_mixed_conv_batchnorm", 
      "attr": {"fix_gamma": "True"}, 
      "inputs": [[753, 0, 0], [754, 0, 0], [755, 0, 0], [756, 0, 1], [757, 0, 1]]
    }, 
    {
      "op": "Activation", 
      "name": "mixed_10_tower_1_mixed_conv_relu", 
      "attr": {"act_type": "relu"}, 
      "inputs": [[758, 0, 0]]
    }, 
    {
      "op": "null", 
      "name": "mixed_10_tower_1_mixed_conv_1_conv2d_weight", 
      "attr": {
        "kernel": "(3, 1)", 
        "no_bias": "True", 
        "num_filter": "384", 
        "pad": "(1, 0)", 
        "stride": "(1, 1)"
      }, 
      "inputs": []
    }, 
    {
      "op": "Convolution", 
      "name": "mixed_10_tower_1_mixed_conv_1_conv2d", 
      "attr": {
        "kernel": "(3, 1)", 
        "no_bias": "True", 
        "num_filter": "384", 
        "pad": "(1, 0)", 
        "stride": "(1, 1)"
      }, 
      "inputs": [[751, 0, 0], [760, 0, 0]]
    }, 
    {
      "op": "null", 
      "name": "mixed_10_tower_1_mixed_conv_1_batchnorm_gamma", 
      "attr": {"fix_gamma": "True"}, 
      "inputs": []
    }, 
    {
      "op": "null", 
      "name": "mixed_10_tower_1_mixed_conv_1_batchnorm_beta", 
      "attr": {"fix_gamma": "True"}, 
      "inputs": []
    }, 
    {
      "op": "null", 
      "name": "mixed_10_tower_1_mixed_conv_1_batchnorm_moving_mean", 
      "attr": {
        "__init__": "[\"zero\", {}]", 
        "fix_gamma": "True"
      }, 
      "inputs": []
    }, 
    {
      "op": "null", 
      "name": "mixed_10_tower_1_mixed_conv_1_batchnorm_moving_var", 
      "attr": {
        "__init__": "[\"one\", {}]", 
        "fix_gamma": "True"
      }, 
      "inputs": []
    }, 
    {
      "op": "BatchNorm", 
      "name": "mixed_10_tower_1_mixed_conv_1_batchnorm", 
      "attr": {"fix_gamma": "True"}, 
      "inputs": [[761, 0, 0], [762, 0, 0], [763, 0, 0], [764, 0, 1], [765, 0, 1]]
    }, 
    {
      "op": "Activation", 
      "name": "mixed_10_tower_1_mixed_conv_1_relu", 
      "attr": {"act_type": "relu"}, 
      "inputs": [[766, 0, 0]]
    }, 
    {
      "op": "Pooling", 
      "name": "max_pool_mixed_10_pool", 
      "attr": {
        "kernel": "(3, 3)", 
        "pad": "(1, 1)", 
        "pool_type": "max", 
        "stride": "(1, 1)"
      }, 
      "inputs": [[703, 0, 0]]
    }, 
    {
      "op": "null", 
      "name": "mixed_10_tower_2_conv_conv2d_weight", 
      "attr": {
        "kernel": "(1, 1)", 
        "no_bias": "True", 
        "num_filter": "192", 
        "pad": "(0, 0)", 
        "stride": "(1, 1)"
      }, 
      "inputs": []
    }, 
    {
      "op": "Convolution", 
      "name": "mixed_10_tower_2_conv_conv2d", 
      "attr": {
        "kernel": "(1, 1)", 
        "no_bias": "True", 
        "num_filter": "192", 
        "pad": "(0, 0)", 
        "stride": "(1, 1)"
      }, 
      "inputs": [[768, 0, 0], [769, 0, 0]]
    }, 
    {
      "op": "null", 
      "name": "mixed_10_tower_2_conv_batchnorm_gamma", 
      "attr": {"fix_gamma": "True"}, 
      "inputs": []
    }, 
    {
      "op": "null", 
      "name": "mixed_10_tower_2_conv_batchnorm_beta", 
      "attr": {"fix_gamma": "True"}, 
      "inputs": []
    }, 
    {
      "op": "null", 
      "name": "mixed_10_tower_2_conv_batchnorm_moving_mean", 
      "attr": {
        "__init__": "[\"zero\", {}]", 
        "fix_gamma": "True"
      }, 
      "inputs": []
    }, 
    {
      "op": "null", 
      "name": "mixed_10_tower_2_conv_batchnorm_moving_var", 
      "attr": {
        "__init__": "[\"one\", {}]", 
        "fix_gamma": "True"
      }, 
      "inputs": []
    }, 
    {
      "op": "BatchNorm", 
      "name": "mixed_10_tower_2_conv_batchnorm", 
      "attr": {"fix_gamma": "True"}, 
      "inputs": [[770, 0, 0], [771, 0, 0], [772, 0, 0], [773, 0, 1], [774, 0, 1]]
    }, 
    {
      "op": "Activation", 
      "name": "mixed_10_tower_2_conv_relu", 
      "attr": {"act_type": "relu"}, 
      "inputs": [[775, 0, 0]]
    }, 
    {
      "op": "Concat", 
      "name": "ch_concat_mixed_10_chconcat", 
      "attr": {"num_args": "6"}, 
      "inputs": [[711, 0, 0], [727, 0, 0], [735, 0, 0], [759, 0, 0], [767, 0, 0], [776, 0, 0]]
    }, 
    {
      "op": "Pooling", 
      "name": "global_pool", 
      "attr": {
        "kernel": "(8, 8)", 
        "pool_type": "avg", 
        "stride": "(1, 1)"
      }, 
      "inputs": [[777, 0, 0]]
    }, 
    {
      "op": "Flatten", 
      "name": "flatten", 
      "inputs": [[778, 0, 0]]
    }, 
    {
      "op": "null", 
      "name": "fc1_weight", 
      "attr": {"num_hidden": "1000"}, 
      "inputs": []
    }, 
    {
      "op": "null", 
      "name": "fc1_bias", 
      "attr": {"num_hidden": "1000"}, 
      "inputs": []
    }, 
    {
      "op": "FullyConnected", 
      "name": "fc1", 
      "attr": {"num_hidden": "1000"}, 
      "inputs": [[779, 0, 0], [780, 0, 0], [781, 0, 0]]
    }, 
    {
      "op": "Cast", 
      "name": "cast5", 
      "attr": {"dtype": "float32"}, 
      "inputs": [[782, 0, 0]]
    }, 
    {
      "op": "null", 
      "name": "softmax_label", 
      "inputs": []
    }, 
    {
      "op": "SoftmaxOutput", 
      "name": "softmax", 
      "inputs": [[783, 0, 0], [784, 0, 0]]
    }
  ], 
  "arg_nodes": [
    0, 
    2, 
    4, 
    5, 
    6, 
    7, 
    10, 
    12, 
    13, 
    14, 
    15, 
    18, 
    20, 
    21, 
    22, 
    23, 
    27, 
    29, 
    30, 
    31, 
    32, 
    35, 
    37, 
    38, 
    39, 
    40, 
    44, 
    46, 
    47, 
    48, 
    49, 
    52, 
    54, 
    55, 
    56, 
    57, 
    60, 
    62, 
    63, 
    64, 
    65, 
    68, 
    70, 
    71, 
    72, 
    73, 
    76, 
    78, 
    79, 
    80, 
    81, 
    84, 
    86, 
    87, 
    88, 
    89, 
    93, 
    95, 
    96, 
    97, 
    98, 
    102, 
    104, 
    105, 
    106, 
    107, 
    110, 
    112, 
    113, 
    114, 
    115, 
    118, 
    120, 
    121, 
    122, 
    123, 
    126, 
    128, 
    129, 
    130, 
    131, 
    134, 
    136, 
    137, 
    138, 
    139, 
    142, 
    144, 
    145, 
    146, 
    147, 
    151, 
    153, 
    154, 
    155, 
    156, 
    160, 
    162, 
    163, 
    164, 
    165, 
    168, 
    170, 
    171, 
    172, 
    173, 
    176, 
    178, 
    179, 
    180, 
    181, 
    184, 
    186, 
    187, 
    188, 
    189, 
    192, 
    194, 
    195, 
    196, 
    197, 
    200, 
    202, 
    203, 
    204, 
    205, 
    209, 
    211, 
    212, 
    213, 
    214, 
    218, 
    220, 
    221, 
    222, 
    223, 
    226, 
    228, 
    229, 
    230, 
    231, 
    234, 
    236, 
    237, 
    238, 
    239, 
    242, 
    244, 
    245, 
    246, 
    247, 
    252, 
    254, 
    255, 
    256, 
    257, 
    260, 
    262, 
    263, 
    264, 
    265, 
    268, 
    270, 
    271, 
    272, 
    273, 
    276, 
    278, 
    279, 
    280, 
    281, 
    284, 
    286, 
    287, 
    288, 
    289, 
    292, 
    294, 
    295, 
    296, 
    297, 
    300, 
    302, 
    303, 
    304, 
    305, 
    308, 
    310, 
    311, 
    312, 
    313, 
    316, 
    318, 
    319, 
    320, 
    321, 
    325, 
    327, 
    328, 
    329, 
    330, 
    334, 
    336, 
    337, 
    338, 
    339, 
    342, 
    344, 
    345, 
    346, 
    347, 
    350, 
    352, 
    353, 
    354, 
    355, 
    358, 
    360, 
    361, 
    362, 
    363, 
    366, 
    368, 
    369, 
    370, 
    371, 
    374, 
    376, 
    377, 
    378, 
    379, 
    382, 
    384, 
    385, 
    386, 
    387, 
    390, 
    392, 
    393, 
    394, 
    395, 
    398, 
    400, 
    401, 
    402, 
    403, 
    407, 
    409, 
    410, 
    411, 
    412, 
    416, 
    418, 
    419, 
    420, 
    421, 
    424, 
    426, 
    427, 
    428, 
    429, 
    432, 
    434, 
    435, 
    436, 
    437, 
    440, 
    442, 
    443, 
    444, 
    445, 
    448, 
    450, 
    451, 
    452, 
    453, 
    456, 
    458, 
    459, 
    460, 
    461, 
    464, 
    466, 
    467, 
    468, 
    469, 
    472, 
    474, 
    475, 
    476, 
    477, 
    480, 
    482, 
    483, 
    484, 
    485, 
    489, 
    491, 
    492, 
    493, 
    494, 
    498, 
    500, 
    501, 
    502, 
    503, 
    506, 
    508, 
    509, 
    510, 
    511, 
    514, 
    516, 
    517, 
    518, 
    519, 
    522, 
    524, 
    525, 
    526, 
    527, 
    530, 
    532, 
    533, 
    534, 
    535, 
    538, 
    540, 
    541, 
    542, 
    543, 
    546, 
    548, 
    549, 
    550, 
    551, 
    554, 
    556, 
    557, 
    558, 
    559, 
    562, 
    564, 
    565, 
    566, 
    567, 
    571, 
    573, 
    574, 
    575, 
    576, 
    580, 
    582, 
    583, 
    584, 
    585, 
    588, 
    590, 
    591, 
    592, 
    593, 
    596, 
    598, 
    599, 
    600, 
    601, 
    604, 
    606, 
    607, 
    608, 
    609, 
    612, 
    614, 
    615, 
    616, 
    617, 
    620, 
    622, 
    623, 
    624, 
    625, 
    630, 
    632, 
    633, 
    634, 
    635, 
    638, 
    640, 
    641, 
    642, 
    643, 
    646, 
    648, 
    649, 
    650, 
    651, 
    654, 
    656, 
    657, 
    658, 
    659, 
    662, 
    664, 
    665, 
    666, 
    667, 
    670, 
    672, 
    673, 
    674, 
    675, 
    678, 
    680, 
    681, 
    682, 
    683, 
    686, 
    688, 
    689, 
    690, 
    691, 
    695, 
    697, 
    698, 
    699, 
    700, 
    704, 
    706, 
    707, 
    708, 
    709, 
    712, 
    714, 
    715, 
    716, 
    717, 
    720, 
    722, 
    723, 
    724, 
    725, 
    728, 
    730, 
    731, 
    732, 
    733, 
    736, 
    738, 
    739, 
    740, 
    741, 
    744, 
    746, 
    747, 
    748, 
    749, 
    752, 
    754, 
    755, 
    756, 
    757, 
    760, 
    762, 
    763, 
    764, 
    765, 
    769, 
    771, 
    772, 
    773, 
    774, 
    780, 
    781, 
    784
  ], 
  "node_row_ptr": [
    0, 
    1, 
    2, 
    3, 
    4, 
    5, 
    6, 
    7, 
    8, 
    11, 
    12, 
    13, 
    14, 
    15, 
    16, 
    17, 
    18, 
    21, 
    22, 
    23, 
    24, 
    25, 
    26, 
    27, 
    28, 
    31, 
    32, 
    33, 
    34, 
    35, 
    36, 
    37, 
    38, 
    39, 
    42, 
    43, 
    44, 
    45, 
    46, 
    47, 
    48, 
    49, 
    52, 
    53, 
    54, 
    55, 
    56, 
    57, 
    58, 
    59, 
    60, 
    63, 
    64, 
    65, 
    66, 
    67, 
    68, 
    69, 
    70, 
    73, 
    74, 
    75, 
    76, 
    77, 
    78, 
    79, 
    80, 
    83, 
    84, 
    85, 
    86, 
    87, 
    88, 
    89, 
    90, 
    93, 
    94, 
    95, 
    96, 
    97, 
    98, 
    99, 
    100, 
    103, 
    104, 
    105, 
    106, 
    107, 
    108, 
    109, 
    110, 
    113, 
    114, 
    115, 
    116, 
    117, 
    118, 
    119, 
    120, 
    121, 
    124, 
    125, 
    126, 
    127, 
    128, 
    129, 
    130, 
    131, 
    132, 
    135, 
    136, 
    137, 
    138, 
    139, 
    140, 
    141, 
    142, 
    145, 
    146, 
    147, 
    148, 
    149, 
    150, 
    151, 
    152, 
    155, 
    156, 
    157, 
    158, 
    159, 
    160, 
    161, 
    162, 
    165, 
    166, 
    167, 
    168, 
    169, 
    170, 
    171, 
    172, 
    175, 
    176, 
    177, 
    178, 
    179, 
    180, 
    181, 
    182, 
    185, 
    186, 
    187, 
    188, 
    189, 
    190, 
    191, 
    192, 
    193, 
    196, 
    197, 
    198, 
    199, 
    200, 
    201, 
    202, 
    203, 
    204, 
    207, 
    208, 
    209, 
    210, 
    211, 
    212, 
    213, 
    214, 
    217, 
    218, 
    219, 
    220, 
    221, 
    222, 
    223, 
    224, 
    227, 
    228, 
    229, 
    230, 
    231, 
    232, 
    233, 
    234, 
    237, 
    238, 
    239, 
    240, 
    241, 
    242, 
    243, 
    244, 
    247, 
    248, 
    249, 
    250, 
    251, 
    252, 
    253, 
    254, 
    257, 
    258, 
    259, 
    260, 
    261, 
    262, 
    263, 
    264, 
    265, 
    268, 
    269, 
    270, 
    271, 
    272, 
    273, 
    274, 
    275, 
    276, 
    279, 
    280, 
    281, 
    282, 
    283, 
    284, 
    285, 
    286, 
    289, 
    290, 
    291, 
    292, 
    293, 
    294, 
    295, 
    296, 
    299, 
    300, 
    301, 
    302, 
    303, 
    304, 
    305, 
    306, 
    309, 
    310, 
    311, 
    312, 
    313, 
    314, 
    315, 
    316, 
    317, 
    318, 
    321, 
    322, 
    323, 
    324, 
    325, 
    326, 
    327, 
    328, 
    331, 
    332, 
    333, 
    334, 
    335, 
    336, 
    337, 
    338, 
    341, 
    342, 
    343, 
    344, 
    345, 
    346, 
    347, 
    348, 
    351, 
    352, 
    353, 
    354, 
    355, 
    356, 
    357, 
    358, 
    361, 
    362, 
    363, 
    364, 
    365, 
    366, 
    367, 
    368, 
    371, 
    372, 
    373, 
    374, 
    375, 
    376, 
    377, 
    378, 
    381, 
    382, 
    383, 
    384, 
    385, 
    386, 
    387, 
    388, 
    391, 
    392, 
    393, 
    394, 
    395, 
    396, 
    397, 
    398, 
    401, 
    402, 
    403, 
    404, 
    405, 
    406, 
    407, 
    408, 
    409, 
    412, 
    413, 
    414, 
    415, 
    416, 
    417, 
    418, 
    419, 
    420, 
    423, 
    424, 
    425, 
    426, 
    427, 
    428, 
    429, 
    430, 
    433, 
    434, 
    435, 
    436, 
    437, 
    438, 
    439, 
    440, 
    443, 
    444, 
    445, 
    446, 
    447, 
    448, 
    449, 
    450, 
    453, 
    454, 
    455, 
    456, 
    457, 
    458, 
    459, 
    460, 
    463, 
    464, 
    465, 
    466, 
    467, 
    468, 
    469, 
    470, 
    473, 
    474, 
    475, 
    476, 
    477, 
    478, 
    479, 
    480, 
    483, 
    484, 
    485, 
    486, 
    487, 
    488, 
    489, 
    490, 
    493, 
    494, 
    495, 
    496, 
    497, 
    498, 
    499, 
    500, 
    503, 
    504, 
    505, 
    506, 
    507, 
    508, 
    509, 
    510, 
    511, 
    514, 
    515, 
    516, 
    517, 
    518, 
    519, 
    520, 
    521, 
    522, 
    525, 
    526, 
    527, 
    528, 
    529, 
    530, 
    531, 
    532, 
    535, 
    536, 
    537, 
    538, 
    539, 
    540, 
    541, 
    542, 
    545, 
    546, 
    547, 
    548, 
    549, 
    550, 
    551, 
    552, 
    555, 
    556, 
    557, 
    558, 
    559, 
    560, 
    561, 
    562, 
    565, 
    566, 
    567, 
    568, 
    569, 
    570, 
    571, 
    572, 
    575, 
    576, 
    577, 
    578, 
    579, 
    580, 
    581, 
    582, 
    585, 
    586, 
    587, 
    588, 
    589, 
    590, 
    591, 
    592, 
    595, 
    596, 
    597, 
    598, 
    599, 
    600, 
    601, 
    602, 
    605, 
    606, 
    607, 
    608, 
    609, 
    610, 
    611, 
    612, 
    613, 
    616, 
    617, 
    618, 
    619, 
    620, 
    621, 
    622, 
    623, 
    624, 
    627, 
    628, 
    629, 
    630, 
    631, 
    632, 
    633, 
    634, 
    637, 
    638, 
    639, 
    640, 
    641, 
    642, 
    643, 
    644, 
    647, 
    648, 
    649, 
    650, 
    651, 
    652, 
    653, 
    654, 
    657, 
    658, 
    659, 
    660, 
    661, 
    662, 
    663, 
    664, 
    667, 
    668, 
    669, 
    670, 
    671, 
    672, 
    673, 
    674, 
    677, 
    678, 
    679, 
    680, 
    681, 
    682, 
    683, 
    684, 
    687, 
    688, 
    689, 
    690, 
    691, 
    692, 
    693, 
    694, 
    697, 
    698, 
    699, 
    700, 
    701, 
    702, 
    703, 
    704, 
    707, 
    708, 
    709, 
    710, 
    711, 
    712, 
    713, 
    714, 
    715, 
    718, 
    719, 
    720, 
    721, 
    722, 
    723, 
    724, 
    725, 
    726, 
    729, 
    730, 
    731, 
    732, 
    733, 
    734, 
    735, 
    736, 
    739, 
    740, 
    741, 
    742, 
    743, 
    744, 
    745, 
    746, 
    749, 
    750, 
    751, 
    752, 
    753, 
    754, 
    755, 
    756, 
    759, 
    760, 
    761, 
    762, 
    763, 
    764, 
    765, 
    766, 
    769, 
    770, 
    771, 
    772, 
    773, 
    774, 
    775, 
    776, 
    779, 
    780, 
    781, 
    782, 
    783, 
    784, 
    785, 
    786, 
    787, 
    788, 
    791, 
    792, 
    793, 
    794, 
    795, 
    796, 
    797, 
    798, 
    801, 
    802, 
    803, 
    804, 
    805, 
    806, 
    807, 
    808, 
    811, 
    812, 
    813, 
    814, 
    815, 
    816, 
    817, 
    818, 
    821, 
    822, 
    823, 
    824, 
    825, 
    826, 
    827, 
    828, 
    831, 
    832, 
    833, 
    834, 
    835, 
    836, 
    837, 
    838, 
    841, 
    842, 
    843, 
    844, 
    845, 
    846, 
    847, 
    848, 
    851, 
    852, 
    853, 
    854, 
    855, 
    856, 
    857, 
    858, 
    861, 
    862, 
    863, 
    864, 
    865, 
    866, 
    867, 
    868, 
    869, 
    872, 
    873, 
    874, 
    875, 
    876, 
    877, 
    878, 
    879, 
    880, 
    883, 
    884, 
    885, 
    886, 
    887, 
    888, 
    889, 
    890, 
    893, 
    894, 
    895, 
    896, 
    897, 
    898, 
    899, 
    900, 
    903, 
    904, 
    905, 
    906, 
    907, 
    908, 
    909, 
    910, 
    913, 
    914, 
    915, 
    916, 
    917, 
    918, 
    919, 
    920, 
    923, 
    924, 
    925, 
    926, 
    927, 
    928, 
    929, 
    930, 
    933, 
    934, 
    935, 
    936, 
    937, 
    938, 
    939, 
    940, 
    943, 
    944, 
    945, 
    946, 
    947, 
    948, 
    949, 
    950, 
    953, 
    954, 
    955, 
    956, 
    957, 
    958, 
    959, 
    960, 
    961, 
    964, 
    965, 
    966, 
    967, 
    968, 
    969, 
    970, 
    971, 
    972, 
    973, 
    974
  ], 
  "heads": [[785, 0, 0]], 
  "attrs": {"mxnet_version": ["int", 1000]}
}